training/legged_gym/resources/policy/recover_v1_back.pt (torch, 771006 bytes, 8 tensors)

weight f4 [512, 46]
00000000: fc75 d1bc bd4a a7bc a447 c63d 208c 9fbc
00000010: 3b57 153b 9acc e039 61f9 28bc 8db2 f6be
00000020: 5433 113e 5292 14be e9aa 97be 5596 973e
00000030: 92a1 6e3e 2d4b 7f3d 987a 00bf 93b6 a53e
00000040: bcac 553d 3243 20bd 09ac 48be 31ba 643e
00000050: 3b4b 45bd beba 0ebe 0700 883d 32c9 7f3d
00000060: bdd0 3a3d d42a a43d c5e2 c5bd 1036 a33c
00000070: 6c75 31be cfef 1bbc a924 9e3d 5322 873c
00000080: 679b f23d 79d4 7dbd b3fc ac3c 5153 8b3d
00000090: 850c a7bd 6f90 b83c 5a08 bd3d 7ca2 603c
000000a0: 16ca 01bd be75 2a3d ed3d 39bc 7192 9b3b
000000b0: 806d 82bd 598d b13d 2fd7 b63c 7888 c7bd
000000c0: 8614 adbd 78c6 edbc 8d47 283c 3abd b4bd
000000d0: ab78 c1ba a261 cfbe f604 cb3e ed5c 7ebc
000000e0: 9f1d e2bd c484 b33e 5d6d 0bbd 3094 79be
000000f0: 3c52 aebe ef81 0dbe 5975 57bd 9576 4cbe
00000100: b532 02be 3970 30bd f8da d9be 9dd8 fabd
00000110: 92bd d23d 1019 d03c 0869 33bd d99c 0dbe
00000120: 90eb 0f3d 20c4 8d3d c23f 32be ac3d ca3d
00000130: 5523 ad3c ed4e 2e3e 5d6d 04bc 6e29 b5bc
00000140: caeb 953d d111 abbd d91c c23c 2dc3 663d
00000150: 920a 58bd e68c a83c 2925 a53c a977 0ebd
00000160: 7d25 a23d f9fa 8ebd d0db cc3c 0918 e4bc
00000170: 04ba 203e b177 3f3d 3e2c fabc 3761 c0bd
00000180: 1ad0 b7bd 5b1e 5ebd 4776 ddbc 3a09 723e
00000190: 5466 f4be d8b0 2bbd e23a 84be 017c 7bbd
000001a0: 5c52 42bd 3c06 5fbe 568c 973e ede1 e1be
000001b0: dd79 dc3d 7b0d 8d3e a432 d93e 905d d83e
000001c0: 4229 b7be f83b 80bb 91f4 cfbd ea0b 02be
000001d0: ae7c 6dbc ba46 bdbd 790a ba3d 5c6f c73d
000001e0: 591b dd3b a1c2 4dbd d9c1 d23d 6d50 c23c
000001f0: 74ca 1cbe d9dd 7e3d 8e2b bbbc c526 17bd
00000200: a38e 96bd 6fa0 1f3d 2c4c 7d3d ecaa aebd
00000210: f9c1 d4bd 12a2 24bd 3628 a93d 6e44 1ebd
00000220: 2bbe bf3d 6571 923d e3e5 103e 5af1 b8bd
00000230: f1aa e9bd 3ba6 52be f52c fabb c63b 86bd
00000240: 7627 d6bd ca65 2dbc e681 7fbe 5ad0 f63c
00000250: fcf0 cbbe fc6b 09be dd04 3d3c 2f53 813e
00000260: 16e9 69be 0bb0 ac3e ddfa bcbe 5a7a 353e
00000270: 442e 7f3e 0d2c 60bd 23e9 893d 894b 653e
00000280: f492 68bc 8960 c1bb febb 20bd 6e18 653e
00000290: a88d 1f3e 3690 d73d d170 0cbe efc9 0a3e
000002a0: 9649 a0bd 97ec 313c 4438 0f3d adfd 96bc
000002b0: afa7 ebbd 9005 613c 82d9 a9bd 843d 8d3d
000002c0: 90b8 a6bd 89e3 4fbd cb0a 3abe bb29 0ebe
000002d0: cc68 4a3d 8413 f03c 3cb4 02bd c39a 2e3e
000002e0: 7aec 0cbd 58d9 dbbd 97d6 ffbd 5d56 093c
000002f0: a21a 2abd 6182 fe3c ed45 72be 0fe5 8cbe
00000300: 1d4b f03e 2215 023d ceae b7bd 57d4 cfbd
00000310: 9bb7 e5bc 1f10 153e 5872 94bd c47f 7a3e
00000320: ddb8 81bc 0ea0 8cbe 0a28 d7bd 2725 35be
00000330: 71ca 113e 3183 1a3e e0f7 02be 8a40 dabd
00000340: 7daa a63d f141 e7bd 9803 c23d 5725 1cbe
00000350: 9b8e 63bd 8eed 8d3d c675 b3bb c914 cd3b
00000360: 519c f7bb 61cc 2a3b b53a c6bd 90ed ca3b
00000370: 3ace 533c 88d4 efbd 80a0 1d3d 537e f9bd
00000380: edb2 9fbd 301b 173e e12a bf3c 4443 773d
00000390: 33a6 d8bc e945 cd3d c1c6 ea3d 36f0 89bd
000003a0: 2ef9 13bd 5b60 023d a7df 94bd ba91 4bbd
000003b0: 6374 2ebe ca28 803d 1fe7 323e cac6 303d
000003c0: 3022 74bc 6282 82be 538d 143e ce54 89be
000003d0: b318 98bd 5b4b 6abe 4ec8 88bc 88d7 5c3e
000003e0: 3b66 163e ba5f 5ebc fdae ffbe bc23 ddbe
000003f0: eaba 383d 154d b9bd 2ea9 c73d a58d 6f3c
-0.025568955 -0.02042138 0.09681633 -0.019475996 0.002278759 0.0004287705 -0.010313363 -0.48183098
0.14179736 -0.14508942 -0.29622582 0.29606882 0.23303822 0.062327553 -0.50187063 0.32365856
0.052166685 -0.039126582 -0.19596876 0.22336651 -0.04816745 -0.13938424 0.0664063 0.062447734
0.045609225 0.08015981 -0.096623935 0.01992324 -0.17329949 -0.009517624 0.07721836 0.01649586
0.11846047 -0.061970208 0.02111659 0.06803001 -0.08156685 0.022529809 0.092301086 0.013710614
-0.031686865 0.041616194 -0.011306268 0.004747682 -0.06368542 0.08669538 0.022319404 -0.09742826
-0.0845118 -0.029025301 0.010270965 -0.088251546 -0.0014760693 -0.40504175 0.39652222 -0.015525085
-0.11040806 0.3506223 -0.034039844 -0.24372935 -0.34047115 -0.13819097 -0.052602146 -0.1996711
-0.12714656 -0.043075774 -0.42549872 -0.12248347 0.10290064 0.025402576 -0.043801337 -0.13829364
0.03513676 0.069221735 -0.17407134 0.09875044 0.021135012 0.17022295 -0.008082715 -0.022114482
0.07320364 -0.083530076 0.023695396 0.056338478 -0.052744456 0.020574998 0.02015932 -0.034782086
0.079173066 -0.06981463 0.025007159 -0.027843492 0.1569596 0.046745006 -0.030538674 -0.09393542
-0.08975239 -0.054228168 -0.027033938 0.23636332 -0.4773432 -0.0419167 -0.25826174 -0.061397556
-0.047441825 -0.21779722 0.29599255 -0.4411768 0.10765431 0.27549347 0.42421448 0.42258883
-0.35773665 -0.003913399 -0.10154069 -0.12699857 -0.014495058 -0.09242006 0.09084029 0.09738037
0.006747645 -0.05023444 0.1029088 0.02371999 -0.15311605 0.06222329 -0.022847917 -0.036902208
-0.073514245 0.03897136 0.06184022 -0.085286945 -0.1038856 -0.040193625 0.08259623 -0.03863948
0.093624435 0.071505345 0.14150195 -0.09030409 -0.114095576 -0.20571224 -0.007634754 -0.0655437
-0.10456745 -0.01058335 -0.24951896 0.030128647 -0.39832294 -0.13420099 0.011536804 0.25258777
-0.22842821 0.3372806 -0.36910143 0.17722455 0.24919993 -0.05472951 0.067339204 0.22392096
-0.014195193 -0.0059014005 -0.039241783 0.223726 0.15581381 0.10525553 -0.13714911 0.13553594
-0.078265354 0.01085963 0.03496577 -0.018431509 -0.115065925 0.013734236 -0.082934394 0.06896499
-0.08140671 -0.050754104 -0.1816818 -0.13883106 0.04941635 0.02930618 -0.031910166 0.17051224
-0.03440521 -0.107348144 -0.12492102 0.008382407 -0.041529305 0.031068029 -0.23659487 -0.27518508
0.46932307 0.031758435 -0.08968888 -0.101479225 -0.028041651 0.14556931 -0.07248372 0.24462801
-0.01583522 -0.27465862 -0.10505684 -0.17689954 0.14237382 0.15089108 -0.1278987 -0.10656841
0.08137987 -0.11291874 0.09473342 -0.15248619 -0.05555592 0.069300756 -0.005476686 0.0062585813
-0.007556476 0.002606176 -0.09679166 0.0061928704 0.012927586 -0.11710459 0.038483143 -0.121822976
-0.07797799 0.14756465 0.023335876 0.060366884 -0.026446437 0.100231 0.114636905 -0.0673527
-0.03612631 0.031830173 -0.07269221 -0.049699523 -0.17036586 0.0625778 0.17470978 0.04315833
-0.014900729 -0.254901 0.14507036 -0.26822513 -0.07426586 -0.22880308 -0.016697075 0.21566594
0.14687435 -0.013572628 -0.49938193 -0.43191326 0.04510013 -0.09047905 0.09749065 0.014621173

bias f4 [512]
00000000: 324c 81bd 837a 9ebd 5188 39bd cdd6 cdbd
00000010: 09fb 173e dd46 cdbd bed2 1dbc c22b 66bd
00000020: e7cf 4bbd e02e 36be 0af7 eabd cb3a 22be
00000030: 9ec0 a03a e8d4 87bd ef6b a4bd d696 31be
00000040: 0691 6ebc 4541 fbbd d404 313e c4c9 a9bd
00000050: e87e 2bbe ee4c 68be cbc3 c7bd fdb4 3fbc
00000060: 6626 9dbd d121 163e a935 f63d 2dd2 033e
00000070: b3c5 9f3d 8eec db3c 3809 d9bd 5ed3 34be
00000080: 9a10 e13d abd3 a33d ea22 4bbc 2cb1 503e
00000090: 4606 9f3d 1481 043d 9251 e53d 54cf 2bbe
000000a0: b515 69be 0fae bcbd 182f aa3c ca4b d83b
000000b0: bab9 373e 9bac 1ebe aa7a 213d d44a 75bc
000000c0: bf30 293e b750 293d 8ea1 f63d 951a c7bd
000000d0: 0fe5 26be 4cde 7fbe 576e 38be 1253 0c3d
000000e0: 45cc fcbd 2cc6 d6bd 578b 193c fa27 c13c
000000f0: 9bd6 eabd 6a98 d6bd 2b14 05be a622 173e
00000100: 20e5 673d 1560 d7bd bb17 823b d01a 553e
00000110: 7136 be3c a0f1 093e 9cc4 6abe 91b2 0bbd
00000120: 9523 ddbd eaa8 063b 8cad d7bd 5b01 b03d
00000130: c4ab 39be 9a8d 17be f47d 3abc 4548 573d
00000140: 1f56 4fbe 38db 413e dc99 253e 8d20 eebd
00000150: c143 773d a8f7 cd3d 2055 98bd 1061 f7bd
00000160: 28d5 173c 57dd 34be b0e8 1fbd 9aef 92bb
00000170: f4b5 9a3d 8a25 fdbc fa0a 163e 474d 3ebe
00000180: 2145 b33c b6d7 0c3e 0914 2b3e 334f afbc
00000190: 181d 583e c761 343c ff68 9c3b 80d2 583e
000001a0: a2b0 2cbd b588 163d 71e7 c13c b938 73bd
000001b0: c24c b9bd 7872 2cbd 1687 72be c94e 2ebe
000001c0: 7648 ab3d 4ae9 cd3b 1a38 fd3d 2ce2 bbbd
000001d0: 1e1b e2bd a34f 0a3e 93b3 50be fc2b 24be
000001e0: 7f61 cc3d f8eb 5bbe c8b7 04bb 1899 3c3e
000001f0: a30d 53be 7d35 eabd c5f4 8ebd 6087 c33c
00000200: 0b25 2cbe 4107 15be 48ee 89bd 574c 243e
00000210: 1852 c23b b61f 1e3e 628f c2bd e9ed bbbd
00000220: c44a 323e eab7 dd3d 5e2f e33c b299 473d
00000230: d5dd 2abd 66c1 32bc 12bf 223d 4b03 f5bd
00000240: 9fa2 57be 410e 1e3d 358e 903e 0ff3 e4bd
00000250: 4beb e0bd 85e1 c43d e3a0 873c 138a a73d
00000260: 7c2d 7cbd 6136 11be 1453 89be 8ed8 45bc
00000270: f1c4 813c 25b1 163e e6dc 65bc be8b 93bd
00000280: b69a 68be 1cf5 81bd 5738 3cbe c182 06be
00000290: eed8 253e 353e 28be fb1d c3bd 7b67 493e
000002a0: 138c dcbd e9cc 8c3c 28f8 2cbe 07cc 1bbe
000002b0: e94f febc 584e 273e 27ed 64bb 2267 873c
000002c0: e839 78be 4698 0d3e 7c8e 023e b7f7 14bd
000002d0: e113 19be c8c9 10be e84a 17be c045 28bc
000002e0: dcba 18be 9b37 923d 1fd7 953c 64bf 963d
000002f0: 1445 213d c39a 573d c8a5 46be fb9d 3e3e
00000300: 9af6 e53d a810 f73d 9c16 fc3d d01f 03bd
00000310: a9a9 a63d 3fd3 f3bd 393b dd3c 5ef3 6bbc
00000320: 8442 533e a557 1f3e e926 27be e78a efbd
00000330: db12 203d a2ea 00bb 2a7e cc3a 39da babd
00000340: a3b6 9d3c a893 f2bc 99ff 283d f89d d7bd
00000350: d1c9 9cbd b1b1 e6bd ac8e 5a3e 2dd1 fe3d
00000360: 275b e1bd 119a 07be 8b79 acbb 2c19 35bd
00000370: 2405 37be 54a4 c4bc 8bc1 69bd 643e 953d
00000380: b7ce 0ebe 7bc8 6a3d 92ba 053e d5dc 133e
00000390: 58f0 d63d 88fd 9fbd f907 8d3d 0497 593d
000003a0: 7b6e 14be 5206 d3bd 18f9 613e ddd5 fbbd
000003b0: 26f4 e53c 5f56 293e c5e3 d1bd dd89 893d
000003c0: a7de a4bd e277 ee3c 7ce6 ea3d 638a 223e
000003d0: acf6 ccbd a758 473e 5032 97bd f1ae 04be
000003e0: 4d0a cd3c 4563 a13d c0c6 2c3d 41a2 213e
000003f0: e094 c1bd a8f6 173e 961a 59be ad26 013e
-0.06313361 -0.07738211 -0.045296017 -0.100507356 0.14841856 -0.10023282 -0.009632764 -0.056194074
-0.049758818 -0.17791319 -0.114729 -0.1584274 0.0012264436 -0.066324055 -0.08028399 -0.17342696
-0.0145609435 -0.122683086 0.17286998 -0.08290437 -0.1674763 -0.22685596 -0.097541414 -0.011700866
-0.076733395 0.14661337 0.120219536 0.12873144 0.0780138 0.026846197 -0.105974615 -0.17658755
0.109894946 0.07999357 -0.012398461 0.20380086 0.077648684 0.03234966 0.11197199 -0.16778308
-0.22762187 -0.092128865 0.02077441 0.0066008316 0.17941943 -0.15495531 0.039423622 -0.014971454
0.16522501 0.04133674 0.12042533 -0.09721867 -0.16298316 -0.24987143 -0.18010841 0.03425891
-0.12343649 -0.10487017 0.0093716 0.023578633 -0.11466714 -0.104782894 -0.12995975 0.14759311
0.056614995 -0.10516373 0.003970114 0.2081101 0.023219319 0.13471079 -0.22926563 -0.03410584
-0.10797802 0.0020547458 -0.10531148 0.085940085 -0.1813193 -0.1480011 -0.011382569 0.052559156
-0.20247696 0.18931282 0.16171974 -0.11627302 0.06036735 0.10057002 -0.07438111 -0.1207906
0.009267129 -0.1766256 -0.039040267 -0.004484129 0.07554236 -0.03090169 0.14652625 -0.18584166
0.02188355 0.13754162 0.16706862 -0.02140007 0.21104848 0.01100964 0.0047732587 0.2117405
-0.042160638 0.036751468 0.02366993 -0.059380267 -0.090478435 -0.042101353 -0.23684344 -0.17022242
0.0836343 0.0062839137 0.12364216 -0.09173998 -0.110403284 0.13506941 -0.20381002 -0.16032404
0.099795334 -0.21476734 -0.0020251144 0.18417776 -0.20610671 -0.11435983 -0.0698028 0.023868263
-0.16811006 -0.14553548 -0.06734902 0.16044746 0.0059301965 0.15441784 -0.09500004 -0.09176237
0.17411333 0.108260944 0.027732547 0.04873056 -0.04171546 -0.010910368 0.039733 -0.11963519
-0.21058129 0.038587812 0.28233495 -0.11179172 -0.109823786 0.09613327 0.016556209 0.081806324
-0.061566815 -0.141809 -0.26821196 -0.012075556 0.01584098 0.14716013 -0.014029717 -0.07204388
-0.22715268 -0.06345579 -0.18380867 -0.13135816 0.16196033 -0.1642998 -0.09527203 0.19668381
-0.107689045 0.017187553 -0.16891539 -0.15214549 -0.031043964 0.1633848 -0.0034931393 0.01652867
-0.2424084 0.13827619 0.12749666 -0.03636905 -0.1494899 -0.14139473 -0.14774668 -0.010270536
-0.14915031 0.07139512 0.018291054 0.073607236 0.03937252 0.052637827 -0.19399178 0.18614952
0.11228676 0.12063724 0.12309 -0.03201276 0.08137829 -0.11905526 0.027005779 -0.014401285
0.20630842 0.15560777 -0.16323437 -0.116964154 0.039080482 -0.0019671102 0.0015601565 -0.09123654
0.019252127 -0.029611424 0.041259382 -0.10528177 -0.07655681 -0.11264361 0.21343488 0.12442241
-0.11003714 -0.13242365 -0.0052635125 -0.04421346 -0.17873055 -0.024004139 -0.057069343 0.07287291
-0.13946043 0.0573201 0.13059452 0.1443971 0.10495061 -0.07812029 0.06886286 0.053122535
-0.1449527 -0.1030394 0.22067678 -0.122966506 0.02807052 0.16536854 -0.10248522 0.067157485
-0.0805028 0.029109899 0.11469743 0.15873103 -0.100079864 0.19467412 -0.07382643 -0.1295736
0.025029326 0.07880262 0.04218173 0.15784551 -0.09452224 0.14840186 -0.21201548 0.1261241

weight f4 [256, 512]
00000000: 9c25 283c 7272 7bbd 15c9 f73c 9075 55bd
00000010: 8758 1dbc 0474 d93c ca88 15bd 6ed6 6ebc
00000020: b142 12bd 522d cb3d 95a6 1b3d c6a4 c7bd
00000030: 49fc fcbc 2127 6a3c a1fb 973c 6ac7 8b3d
00000040: a4d3 c9bd c324 423c 2f99 11be e8a2 e4bb
00000050: 53e5 02bb c6a8 713d 7824 103d f7fe 723d
00000060: 08a9 8b3d 0d0c 64bd 30f6 a53c 2027 5cbc
00000070: 16cf 0fbd db5a 1cbc 4480 4ebc 0771 b9bc
00000080: f7ab 603c 7ac2 96bb 55ee 5f3d 8371 b1bc
00000090: 1fa8 4dbd 2133 44bd 4ad5 c8bc ef17 8f3d
000000a0: fd89 0bbd b721 a53d e536 dabd 304b 5ebc
000000b0: 58e2 c53c 636f b13d ed6a 373d 448f 5dbc
000000c0: e9ed a8bb 386d 75bd 4907 ed3c 270b d5bc
000000d0: 971a 00bc 7d2a 683b 1905 223c c661 80bc
000000e0: 4b3c e13d 03a2 d63b 368e 1bbd 5840 01bc
000000f0: b1b4 85bd b1fd 8cbd 8e9b 863d bc36 c43c
00000100: 0055 0ebc b440 d73d 0586 98bc dcd2 44bc
00000110: 1fc4 bebd 2418 dfbc 1767 be3b d005 043d
00000120: d164 ac3c 37d3 41bc b4dd 38bc b31c f0bc
00000130: b472 023d 8acf 3c3c 32eb b0bb a35f 68bc
00000140: c37b e23d ae6d 823c f8a6 bc3d 4c2a b13c
00000150: f7f0 ce3c 9349 0ebd 68cd 783d c3e9 443d
00000160: d5cc 273d 9cae bfbc e651 233d d4af e83c
00000170: 7fdd 6bbd bfff b03c 5113 7e3c 3173 893d
00000180: f70b 19bd 1abe 48bd 1ea0 78bc 6f33 133d
00000190: e443 2bbd 94ef 013d e681 c1bd b9e0 5dbc
000001a0: 5053 ab3d c01a 94bd 9ecb e23c d3df b53c
000001b0: 3670 39bd 0b51 063d 16d3 443c 359a 0d3e
000001c0: 13b2 b0bd 3c3d 81bb c326 a8bd 2802 47bd
000001d0: 2b74 bf3b 23ba 24bd ade5 96bd e6c1 533d
000001e0: 11b6 52ba a1d3 a93d 18f1 a93c f669 e9bc
000001f0: a09b 42bd 4040 1d3d e322 6fbc ec39 27bd
00000200: 5267 0ebd bc83 363c 7e74 f33c 7d89 e73c
00000210: 410d 5fbd a4e4 013d a1be d5bc 097f 7abd
00000220: f8f1 4ebd 8ea7 433b 3d81 4d3d fa7b 3a3d
00000230: b830 c93d 908e d03c b3a4 d1bb 1748 d03d
00000240: e2bd abbd 4e5e 8f3d ec24 6ebd 493e 6f3d
00000250: 4b7b d03c 9aec bf3c 85eb 113e bed0 84bc
00000260: a594 91bc 4d1a e0bc 7052 ad3c b338 c6bb
00000270: 8fbb 233d e72e 61bc c741 973d a34f b73c
00000280: 6621 173d f207 0ebd 4664 86bc 86de 87bc
00000290: 4d8c b4bd 672a fc3c cb74 753d ff11 b9bd
000002a0: 1cdd 99bc fe6e 8ebc f6e8 2bbd b958 033e
000002b0: 0a0e 9d3c 4f7c 133d 3e9c c23c b7f2 20bd
000002c0: fc5b 1f3d b33d 2c3d 6750 323d c099 0ebd
000002d0: 6e21 a1bb b546 323d aff6 c23c 9dac 44bc
000002e0: 4f17 dc3d eb59 fbbc cfb2 933d 01fc 7ebd
000002f0: 40e5 95bc d9c3 883c 7113 e13d a9cf d539
00000300: f13a 93bd d091 45bd 9653 513d 6cd1 16bd
00000310: 6e03 8fbd 4760 9e3c 7221 4fbd f081 dfbc
00000320: 7b82 80bc e651 f0bc 0c41 a13d 057e 113c
00000330: 9c84 a93b f65e c73c 45b0 f5bd c84f 593d
00000340: d36c e53b a1ba 213d bdfa 70bd 3a7a 49bb
00000350: adeb bbbc efbf 493a 1971 dabc f66a 7b3d
00000360: 5bac 41bd c80e 693d c8c5 5b3d c8fc ff3b
00000370: 89af 8cbb cdf0 c5bb 8001 5b3d aaf7 653c
00000380: aff4 943c d6d0 85bc 344a 89bc b5a2 ffbb
00000390: f26b debd 1159 abbd 1db4 313c fa21 5fbd
000003a0: 4d7e 15bd 4456 283d 5b36 82bd fd87 a3bc
000003b0: da22 a8bd f8e4 763d 0faf 223d e4ce a6bd
000003c0: 0b9b 933b b435 aebc 2a72 30bd 4105 e4bd
000003d0: 15c3 093d 3298 ae3c c8ec aabd 03dc 0a3e
000003e0: 1f50 8a37 1085 45bc 5df6 c43b 39fc 9d3d
000003f0: 884b 0ebd e1db 1d3d 5100 91bd dcba 5a3d
0.010262873 -0.06138844 0.03024725 -0.05211407 -0.009603626 0.026544578 -0.036507405 -0.014577491
-0.035708133 0.099207535 0.038000662 -0.09748225 -0.030882018 0.014291556 0.018552603 0.068251446
-0.0985482 0.011849585 -0.14218591 -0.0069774278 -0.0019973114 0.058998846 0.03519103 0.059325185
0.068193495 -0.055675555 0.020258993 -0.0134370625 -0.035109602 -0.009543146 -0.012603823 -0.022636903
0.013712875 -0.00460082 0.05467065 -0.021660572 -0.05020916 -0.047900323 -0.024515767 0.06986987
-0.034067143 0.08063071 -0.106550016 -0.013567731 0.02415578 0.086638235 0.044779707 -0.013522927
-0.005155314 -0.059918612 0.028934138 -0.026006294 -0.0078188395 0.0035425716 0.009888911 -0.015671622
0.10997828 0.006550075 -0.03797742 -0.007888876 -0.06528605 -0.06884325 0.065726385 0.02395188
-0.008687258 0.10510388 -0.018618593 -0.012013163 -0.09314751 -0.02723319 0.005810629 0.032232106
0.021044167 -0.011830143 -0.011283327 -0.02931056 0.03184767 0.011524091 -0.005399131 -0.014182958
0.11058762 0.01592144 0.09211534 0.021626614 0.025261385 -0.034738135 0.060742766 0.048074495
0.040966827 -0.02339869 0.039873026 0.028404154 -0.057584282 0.021606324 0.015507535 0.06711424
-0.037364926 -0.04900942 -0.015174894 0.035937723 -0.041812792 0.03172262 -0.09448604 -0.013542348
0.083655 -0.07231665 0.027684983 0.022201454 -0.04527303 0.032792132 0.012013217 0.13828357
-0.08627715 -0.0039440673 -0.08210518 -0.04858604 0.0058427057 -0.040216576 -0.07368026 0.051698588
-0.0008037994 0.08292318 0.020744845 -0.028492909 -0.047511697 0.03839135 -0.01459572 -0.040826723
-0.034766503 0.011139806 0.029718634 0.028263802 -0.054456 0.03171219 -0.026091876 -0.061156306
-0.050523728 0.002985451 0.05017208 0.04552839 0.098237455 0.025458604 -0.0063978075 0.1017
-0.08385827 0.07000409 -0.05814068 0.05840901 0.025449416 0.02342825 0.1425 -0.016212817
-0.017771075 -0.027356291 0.021157473 -0.0060492395 0.03997379 -0.013744093 0.07385593 0.022376841
0.036897086 -0.034675546 -0.016405236 -0.0165856 -0.08815823 0.030781938 0.059925836 -0.090366356
-0.018782191 -0.01738691 -0.041970216 0.12826814 0.019171733 0.03600722 0.023756143 -0.03929397
0.038906083 0.04205103 0.04353371 -0.034814596 -0.004917315 0.043524463 0.023799269 -0.012004045
0.10746633 -0.030682525 0.072118394 -0.06225205 -0.018297791 0.01669495 0.10990036 0.00040781245
-0.071889766 -0.04823476 0.051105104 -0.036820814 -0.06983076 0.019333018 -0.050569005 -0.027283639
-0.015687218 -0.029335927 0.07873735 0.008880143 0.005173279 0.024337273 -0.11996511 0.0530546
0.0070014982 0.039484624 -0.058832873 -0.0030743019 -0.022939527 0.0007696142 -0.026665257 0.061381303
-0.04728351 0.056898862 0.053655416 0.0078121163 -0.0042933864 -0.0060406686 0.053468227 0.0140360985
0.01818308 -0.016334932 -0.016759016 -0.0078013786 -0.10860433 -0.083665974 0.010846165 -0.054475762
-0.036497403 0.041097894 -0.06358024 -0.019962305 -0.082097724 0.060276955 0.03971773 -0.0814493
0.0045045665 -0.021265842 -0.043077625 -0.111338146 0.03363331 0.021312807 -0.08345944 0.1356049
1.6488191e-05 -0.01205565 0.006010814 0.07714123 -0.03474 0.03853977 -0.070801385 0.05340086

bias f4 [256]
00000000: 1634 edbd b8df 57bd 6fdc 92bd 4ce5 babd
00000010: 148b 87bc d26f 64bd 6341 15be 7797 303c
00000020: 215a 993c 5a86 d9bd 540f 83bd b395 15bd
00000030: 75cd 79bb ea5d 23be 8c99 c4bd c84a 24be
00000040: 6c06 18bd ee14 06bd c6b9 a8bd 75db a8bd
00000050: 638f 5f3b 88d0 ae3b 5806 1ebc 0742 b4bc
00000060: 7439 1bbe a059 c53c 9e3e 5dbd ddeb 81bc
00000070: 0ef8 9bbd 6cc6 50bd 4055 fc3c 7f2b 24bd
00000080: 2a35 ee3c bfea 683b ca10 103b 9871 91bd
00000090: 57c0 fe3b d12f f03c eb2b 83bc 1095 83bc
000000a0: fc58 9dba 89b6 b0bd aa1b efbc bcb8 bdbc
000000b0: b3dd 133d a284 acbd 35f7 633c 8a10 86bd
000000c0: 25bc cf3c 18c2 55bd 95cd 97bd 9f43 dcbd
000000d0: 3367 31bd eadf 283c 1020 4ebd 963f 253c
000000e0: 7b8d f7bc 84e3 3d3c e436 38bd 130c 50bd
000000f0: e4a8 debd c4bf 20be fe10 fabc b64e 35bd
00000100: ca80 45be 31d0 92bd 87ac e93c 44c8 643c
00000110: f696 b5bd 2f27 8fbd 05b2 803b 7e94 0ebd
00000120: 1ed1 83bc 9668 543d 8c5b 8cbd 7a54 cbbc
00000130: 2704 e83c 42de 51bc 9631 bebc 1156 643c
00000140: 84fe 49bd 2dd6 2dbd 0b64 50bd 7398 b0bd
00000150: 453b 2a3c 426c d9b9 12ff d3bd 1a86 4fbd
00000160: 68e8 0bbd d1b0 8dbd 1dbe a9bd f226 94bd
00000170: 5ff2 8fbd 7380 ac3c a0eb 1d3c 4f05 483b
00000180: 3d6b 953a 75f5 84bd 805b dc3c 5a2e 8abd
00000190: 8cb4 36bd 49fd 96bd 251d abbd 787e 5ebd
000001a0: 8e9c d4bc b0d4 12bd 7dd4 783b fe01 71bb
000001b0: d85e d23b d28e debc 54ef 9ebc acdd a1bc
000001c0: 493a c23c 2d7a 00bd c256 f8bd 0421 ad3b
000001d0: 5864 88bd d19c 1dbe e9d9 41bd 859e 8ebd
000001e0: 0a49 9abd bd43 033c 7c86 c7bc dec1 203c
000001f0: 94f3 a1bd eb5c c0bc 2726 97bd df26 ecbc
00000200: 4323 133d 710e 1dbd 30bb 6cbd b0f8 29bd
00000210: f891 213d 340a 2bbd 0cca 193c 0645 bdbd
00000220: 492c e3bb b6d9 2bbd a050 4bbd 5bf0 81bd
00000230: b50f 76bc e05a 27bd 5d3a 18bc e81e 72bc
00000240: 8766 57bd a8a6 dcbd 94c9 77bd d385 693c
00000250: 7350 6f3d af37 24be 3648 c6bb 3b11 79bd
00000260: 2661 f0bd a8ed 7e3d b308 0cbe 2e61 d7bb
00000270: 93db 85bd 3d3e 30bd 65c2 d9bd 4e3d 0abe
00000280: 6ca8 8bbc 1ac0 0abd 5406 93bd fe6e 7cbd
00000290: 9422 02be 27b2 053d ca4a 0dbd aef8 f83c
000002a0: 9c7b a93c aafa c8bc 2e7b 083a 202e 7a3c
000002b0: 09f5 83bd 55a1 2ebd 8cb7 43bd 1b53 8abd
000002c0: d3f5 2a3c c56c 0cbe e9fa 883b 03c5 48bd
000002d0: b529 51bd 7ff2 e0bb 6ff6 edbb 410f ddbc
000002e0: e4c2 1fbb f4b8 a6bd b7d2 f2bd 4ae9 17be
000002f0: da1e c63c 18ab 26be aa9b 52bd 9feb 92ba
00000300: f4b8 8fbd bd66 95bd 6126 e6bd 2063 dfbd
00000310: 3f98 c7bd 5081 76bd ac7b 88bd db1b 0dbd
00000320: 6e12 c6bc d132 4f3c 704a 8abd 5de7 95bd
00000330: eedb c73b 3bf2 0bbe 46fc 5c3c fc06 48bc
00000340: a382 15bd c0e4 83bd 4b53 86bd 0ebf 3d3d
00000350: 6170 1d3d a2c1 34bd 2f5b 443d c51b d5bd
00000360: d11f 18be d738 1cbc ae00 2abb 2204 00be
00000370: badf f7bd 9751 9ebc e3fb 13bd 982b 583d
00000380: 0977 6ebd 5745 273c 11ce f2bc 7e65 14be
00000390: 15ca 34bd 615b d3bc df5a 7e3d 577d 58bd
000003a0: f8e3 a3bd 548b 3d3c 3eee 6a3d 357c 70bd
000003b0: b26c 83bd 8c31 0f3c 27ed d7bc e471 703c
000003c0: de8e edbc b96d e43a 660b 25bd 4813 883c
000003d0: af0b ddbc 0acc c4bc ea49 c5bd 6933 2fbd
000003e0: 8925 4a3c fb21 03be 718a d6bb 04c8 d5bc
000003f0: 037b 55bd 46f2 04bd 8f9c ac3c 2292 4abd
-0.115822 -0.05270359 -0.071709506 -0.09125766 -0.01654581 -0.055770703 -0.14575724 0.0107782995
0.018719735 -0.10621329 -0.06399408 -0.036519717 -0.0038116847 -0.15953794 -0.09599599 -0.16044152
-0.0371155 -0.032734804 -0.082385585 -0.08244983 0.0034112565 0.0053349175 -0.009645067 -0.02200414
-0.15158635 0.024090588 -0.054014795 -0.015859539 -0.07615672 -0.05097048 0.03080237 -0.040080544
0.029078085 0.003554031 0.0021982663 -0.071017444 0.0077743935 0.029319676 -0.016012153 -0.01606229
-0.0012004669 -0.08628566 -0.029187996 -0.023159377 0.0361001 -0.08423735 0.013913919 -0.06546123
0.025358269 -0.052187055 -0.074122585 -0.10755085 -0.04331131 0.0103072915 -0.050323546 0.010085961
-0.03021883 0.0115898885 -0.044974223 -0.050792765 -0.10872057 -0.15698153 -0.03052568 -0.044264518
-0.1928741 -0.071686156 0.02852465 0.013963763 -0.08866684 -0.069898956 0.0039274716 -0.034809582
-0.016090926 0.051857553 -0.06853399 -0.024820555 0.028322292 -0.012809338 -0.023217004 0.013936535
-0.04931499 -0.042440582 -0.05087666 -0.086228274 0.0103901075 -0.00041470124 -0.10351385 -0.050665
-0.034157187 -0.06918491 -0.08288214 -0.07233991 -0.070286505 0.021057343 0.009638697 0.0030520742
0.0011399757 -0.0649213 0.0268991 -0.06747122 -0.044605777 -0.07372529 -0.08355168 -0.05431983
-0.025953557 -0.035847366 0.003796845 -0.003677487 0.0064199977 -0.027167711 -0.01940123 -0.019759022
0.023709433 -0.031366516 -0.12125923 0.005283477 -0.06659764 -0.15391852 -0.047326956 -0.06963829
-0.07533462 0.0080117555 -0.02435612 0.009811847 -0.07907787 -0.023481807 -0.07380324 -0.028827129
0.0359223 -0.03834385 -0.057795703 -0.041496933 0.039445847 -0.041757777 0.009386551 -0.09241681
-0.0069327694 -0.041955672 -0.049637437 -0.06344672 -0.015018393 -0.04085815 -0.009291259 -0.014777876
-0.052588012 -0.10773975 -0.060494974 0.014253098 0.05842633 -0.16036867 -0.0060510887 -0.060807448
-0.117372796 0.062238365 -0.13675193 -0.006572864 -0.06536021 -0.043028105 -0.10632781 -0.13499948
-0.017048083 -0.03387461 -0.07178941 -0.061629288 -0.12708503 0.032640602 -0.034495153 0.030392017
0.020688824 -0.024533588 0.00052063435 0.015269786 -0.06443221 -0.042634327 -0.047782466 -0.06754132
0.010434586 -0.13713367 0.0041803014 -0.04901601 -0.051065166 -0.0068648453 -0.007262043 -0.026984813
-0.0024377638 -0.08140746 -0.11856597 -0.14835086 0.024184633 -0.16276205 -0.051417984 -0.0011209137
-0.07017699 -0.072949864 -0.11237789 -0.109075785 -0.097458355 -0.060181916 -0.066642135 -0.034450393
-0.02417871 0.012646393 -0.06752479 -0.0731952 0.0060992157 -0.13666622 0.013487881 -0.012208696
-0.036501538 -0.06440115 -0.065588556 0.046324782 0.03843725 -0.044129975 0.047938522 -0.10405687
-0.14855887 -0.009535036 -0.0025940347 -0.12501577 -0.12103219 -0.019326014 -0.03612889 0.05277595
-0.05821899 0.010209403 -0.029639276 -0.14491841 -0.044138033 -0.025800409 0.06209838 -0.05285391
-0.08002466 0.011568863 0.05735611 -0.058712203 -0.06417216 0.00873984 -0.0263582 0.014675591
-0.028998788 0.001742772 -0.040294074 0.016610757 -0.02698311 -0.024023075 -0.096332386 -0.042773638
0.012338051 -0.12805931 -0.006547265 -0.026096351 -0.052119266 -0.032457612 0.021070747 -0.04945577

weight f4 [128, 256]
00000000: 9b78 59bd 4b58 2dbb 5a38 123c c386 3d3b
00000010: dc7a 82bc c6ac 8c3b 3640 2b3b ec60 a4bd
00000020: 97c0 15bd 41bf 18bd eec2 28bd 0b48 d4bc
00000030: ba79 79bc 5c51 f9bc fae5 063d 0c22 bfbd
00000040: b57f 423d 3351 57bd dca7 243c 2293 a4bc
00000050: e1af 493c 34d1 0abd 423f 86bd a546 973d
00000060: a328 93bd 597d a8bc c2e1 68bc 6d53 15bd
00000070: f057 aabd 0521 b93d d5a3 4dbd 2c81 5c3d
00000080: 953f 54bd d9f5 25bd 13f8 bb3c 7df7 503d
00000090: b280 27bd 1f73 e2bd 51df 7bbd b24e 3a3c
000000a0: aa3e 8a3d b355 2fbd 1a36 423d 434f 6d3d
000000b0: cee3 15bd 18d2 893b f08c 2c3d d844 033c
000000c0: 975d babc 6a51 cb3c 8b1d d63d 3ffa b93b
000000d0: 54d9 603d 83b3 fd3c f70d a3bc 3b3b 3bbd
000000e0: 1fed 6e3c b921 d6bc e386 2b3d 1cb6 3a3d
000000f0: 0c38 223d 7af3 41bc 0422 a53d 540d c13c
00000100: cb26 f93b dbce 35bd 44ff 2b3d c0be 38bd
00000110: 6898 8fbd 1a81 cebb 3db0 30bd 1dfa a3bd
00000120: c8ce 1fbc 85bb b13c ec11 f43b 4124 55bd
00000130: b1ad 2a37 0145 0ebd 6e1b ba3d 16cd d93c
00000140: be78 14bd aea1 eebc c7ce f13c df73 263d
00000150: 282a 893d 88a4 243d 81a3 6ebd 4565 703d
00000160: bab7 5e3d 170f 9ebc d822 ccbc 8967 30bd
00000170: 1256 033d 2700 a23d a498 a63c 885a 043d
00000180: efb2 863d f498 963b 4351 42bd af16 993b
00000190: 124d b6bd 56ca c2bd ed33 a8bd bf7a cdbc
000001a0: d010 723a 5fa2 813d 4396 40bc 19b8 153d
000001b0: c6b8 bebc 37ab 85bd 7d15 ebbc 75af 46bd
000001c0: e6f9 aa3c beb1 4e3b 326d 35bd 6d16 85bc
000001d0: 2e48 563c 402a f03c eb37 853c 84db 8d3d
000001e0: eb87 e3bc b1b7 373c 1a85 ebbb bc60 0a3d
000001f0: 5d4b 023b 869d 84bd d384 84bb 644b 90bd
00000200: e010 b73d c26e 2abd 5474 853c 0ce4 753d
00000210: f5a0 72bd 69c0 c9bc aa1f 82bd 9b83 653c
00000220: de25 b53c 6ef0 30bd 18c4 10bd d954 f839
00000230: 9594 20bd 9fa0 f33c 14a7 85bc 2539 143d
00000240: 9060 173d 550e c53d 1826 903d e059 bdbc
00000250: 21ba 103d a4c4 c13b d22a aabd 32a2 a13c
00000260: d398 ca3c 3742 a93b 385a 2cbd b491 853c
00000270: f267 6c3d 5ffa c73c 5efd 433d 5cf8 debc
00000280: 8a45 89bc a428 4b3d 5fc6 393d 4112 203c
00000290: 2820 babc d60b acbd 48e8 de3c ba46 5b3c
000002a0: cd56 a93c 4e1b d03c 98bf 79bd a9d3 443d
000002b0: 2f32 e93c 4ad0 153d b27a f73c 2717 df3c
000002c0: 4d30 c03c 36de 84ba c26a d73c 77b6 3abd
000002d0: b14c 35bd 97c4 763d 7c92 78bd 69b8 553d
000002e0: ab5c b33a c968 32bc 8c41 a7bc fa49 95bb
000002f0: 1770 57bc b889 2cbd f048 60bc bd84 efbc
00000300: 33fb ab3d 49f0 24be 9a94 02bd 1e6a 103d
00000310: d1a4 0b3d 39e2 093b d7ec edbc d8ed dcbc
00000320: 2451 86bb b3d6 9fbc a573 3fbd e781 693b
00000330: 6ac8 1cbc 52aa d23c 588c 6d3c 9870 ad3c
00000340: 3d8e 94bc d670 33bd 91ad cb3c 2c7a 9bbd
00000350: 8db7 ae37 8c43 13bd c57a 433c 62ed 28bd
00000360: 2b5d 48bc f98c 443d 1873 db3c 805a 8bbd
00000370: bb71 ac3c 9a72 813d 7482 23bc fed5 d6bc
00000380: c708 7fbc 3299 d6bc e117 3e3c 7617 9abd
00000390: db8b a6bc bfb9 ed3a 26a1 223d 219a 61bd
000003a0: cb81 583d fef7 c3ba b493 32bd 9002 a3bd
000003b0: 8d82 213d 1d84 20bd 7bfc b4bc e7bf bc3c
000003c0: c017 f8bc 946e 253c 5608 803d 5d8e a0bd
000003d0: 4a07 d63b 83a1 f83b 311e 3dbd 1b76 103a
000003e0: 28c2 a1bd 75e3 71bc 25b0 4fbd 4304 81bc
000003f0: 1888 c13c 7ca8 e53c 14ac 4bb9 55db 11bc
-0.053093534 -0.0026450332 0.008924568 0.0028919436 -0.015927725 0.004293057 0.0026130802 -0.08026299
-0.03656062 -0.03729177 -0.041201524 -0.025913259 -0.015226776 -0.030434303 0.032934166 -0.09332666
0.047485072 -0.052567672 0.010049786 -0.02008969 0.012309999 -0.033890918 -0.06555034 0.07386521
-0.07185485 -0.020567583 -0.014213981 -0.036456514 -0.08317554 0.09039501 -0.05020507 0.053834125
-0.05181845 -0.04051766 0.02294544 0.051017273 -0.040894218 -0.11057114 -0.061492268 0.0113713015
0.067502335 -0.04280634 0.047414877 0.057936918 -0.036594205 0.0042059533 0.042126596 0.008012019
-0.022749705 0.024819095 0.104548536 0.0056755836 0.05489476 0.030969387 -0.01990412 -0.045710783
0.014582901 -0.026139127 0.041876685 0.04558383 0.03960423 -0.0118378345 0.080631286 0.023565926
0.0076035014 -0.044386726 0.041991487 -0.04510379 -0.07011491 -0.006302011 -0.043136824 -0.0800669
-0.00975389 0.021695862 0.0074484255 -0.052036528 1.017323e-05 -0.034733776 0.09087263 0.02658705
-0.03624796 -0.02912983 0.029517544 0.040637847 0.06697494 0.04019597 -0.0582614 0.05869033
0.054374434 -0.019294305 -0.024918959 -0.04306749 0.032064505 0.07910185 0.020336457 0.0323129
0.065770976 0.00459587 -0.04744078 0.0046718935 -0.08901419 -0.09511249 -0.08213029 -0.025082944
0.00092340726 0.06329798 -0.011754575 0.036552522 -0.023281466 -0.06526797 -0.02869677 -0.048507173
0.020871114 0.0031539048 -0.04429359 -0.016246045 0.013078732 0.029317021 0.016262015 0.06926635
-0.027774772 0.011213229 -0.007187498 0.03378366 0.0019881346 -0.06475358 -0.004044154 -0.070456296
0.089387655 -0.041609533 0.016290821 0.060031936 -0.05923553 -0.024627881 -0.06353696 0.014008428
0.022112783 -0.04319804 -0.03534326 0.00047365463 -0.0392042 0.029739676 -0.01631502 0.03618731
0.036957324 0.09621874 0.07038516 -0.023114145 0.035333756 0.005913334 -0.083089486 0.019730661
0.024731075 0.005165364 -0.042078227 0.016304828 0.057716317 0.024411378 0.04784905 -0.027218036
-0.016756792 0.049599305 0.045355197 0.009769977 -0.022720411 -0.08400695 0.02721037 0.013383562
0.020671273 0.025403645 -0.060973734 0.048053417 0.028466312 0.036575593 0.030209873 0.02723272
0.023460532 -0.0010137025 0.026296023 -0.04558417 -0.04426259 0.060246076 -0.060686573 0.05217782
0.0013684233 -0.010889241 -0.020416997 -0.004555938 -0.013149283 -0.042123526 -0.013689265 -0.0292381
0.08397522 -0.16107287 -0.03188 0.03525745 0.034092728 0.002103938 -0.029043598 -0.026968881
-0.004099028 -0.019511556 -0.046741147 0.0035630406 -0.009569267 0.02571598 0.014498793 0.021171853
-0.01813423 -0.04380878 0.024863036 -0.07591662 2.0827889e-05 -0.03595309 0.011931126 -0.04124201
-0.012229244 0.047986005 0.02678828 -0.06804371 0.021050325 0.06320687 -0.009979833 -0.026225086
-0.0155660575 -0.026196096 0.011602373 -0.07524006 -0.02033036 0.0018137022 0.039704464 -0.05507863
0.052858155 -0.0014951227 -0.043597892 -0.07959473 0.039431144 -0.039188493 -0.022093048 0.023040725
-0.030284762 0.010097165 0.0625159 -0.07839654 0.0065316306 0.007587613 -0.04617137 0.0005510763
-0.078983605 -0.014763703 -0.050705094 -0.015749102 0.023624465 0.028034441 -0.00019423693 -0.0089023905

bias f4 [128]
00000000: 7def 93bd d897 263c 83f2 acbd aaf2 92bb
00000010: 44b0 d1bd 6c49 523c 7abe 7bbb e8a5 3b3d
00000020: 877a 0e3c 14dd 513d 3242 d23a 844a 7d3c
00000030: 7b46 5b3d 9e6b bd3d af4b b83c a981 c9bd
00000040: f31c 07bd 85b1 91bc 21c9 803d 4aee 60bd
00000050: 503b ca3d 555a 4f3d 1a35 adbd 73ff 20bd
00000060: 1693 d9bc ee51 3cbd ad03 67bd bfc6 4abc
00000070: 07ee dabc d5d4 01bd e089 093d 21aa 39bd
00000080: 1111 e6bd 5fbd 6bbc e836 74bd 6851 bebd
00000090: 7c6e 27bb 1bbc 9bbc 8b1f b4bd f896 cebd
000000a0: a471 45be 745b 6fbd 4e3d 5f3d cf64 4d3d
000000b0: bca5 973d 30d0 b9bd a208 bbbd 7f58 463c
000000c0: 620e 0b3d a755 293d c8e1 e43b b0cc 4bbd
000000d0: eed0 0d39 2228 98bc bf21 f3bc 6df3 89bd
000000e0: 14a6 bf3b 522b 973c 863a 2dbd edc6 9c3b
000000f0: 58c0 0fbe 984c 1abc 4fb4 a9bb e438 4e3d
00000100: e728 503d f230 7cbc 3298 39be 13c8 e6bd
00000110: 0b4b 2abe 8b20 5a3c e49a 40bc ac91 fd3c
00000120: 096a 14bc ef66 e8bd eac5 e0bc e1c1 793d
00000130: 6789 9a3d 5450 2bbd b67f 78bc c8e0 c8bd
00000140: 50df 5abd 316a 17be 18ba 253c a34b fabd
00000150: 56d6 1c3c 3e43 c8bc 9ab4 5c3d 362c 4dbc
00000160: 58dc 5fbd bc89 7fbc 318f e3bc 4783 29be
00000170: 1441 973d f6ab 35be 91e1 003d 20ee d93c
00000180: ee65 a7bd ddee 40bd f9b3 3dbd 6cf0 6e3d
00000190: 23a8 f0bd c91a bdbc 5055 45bd bc27 303a
000001a0: 3f6b 8cbd a734 913c 40eb 8cbb 21ad 133c
000001b0: 882a 39be a50d cebd 1af7 8ebd 403d 183b
000001c0: 8703 2ebc 8a49 d5bc 9759 9bbd 7e98 24bd
000001d0: 361c b33c d567 0e38 c754 43bd 89ee aebd
000001e0: 7438 9cbd 39b3 d63c 757f cc3c 5314 e8bd
000001f0: 4b7c 07bd 05cb 90bd 321b 1abe 49ff 00be
-0.07223413 0.010168038 -0.08444693 -0.004484494 -0.10238698 0.012834888 -0.0038413093 0.045812517
0.008696205 0.051236227 0.0016041456 0.01545966 0.053534012 0.09249042 0.022497026 -0.09839184
-0.032986593 -0.017784843 0.06288362 -0.05491475 0.09874594 0.050623257 -0.08457394 -0.039306115
-0.026559394 -0.04597657 -0.05639999 -0.012376486 -0.026724828 -0.031697113 0.033578753 -0.045328263
-0.11233724 -0.014388411 -0.059622675 -0.09292871 -0.0025548032 -0.019010594 -0.08795079 -0.10087389
-0.19281632 -0.058436826 0.054501824 0.050144967 0.07404658 -0.09072912 -0.09132506 0.01210606
0.033949263 0.04134145 0.006984923 -0.049755752 0.0001352464 -0.018573824 -0.029679177 -0.06735883
0.0058486555 0.018453274 -0.04229214 0.004784456 -0.14038217 -0.009417675 -0.005178965 0.050347224
0.050820258 -0.015392529 -0.18124464 -0.1126863 -0.16630189 0.013313423 -0.011755679 0.03095325
-0.009058484 -0.11347758 -0.027438123 0.060975913 0.07545739 -0.041824654 -0.015167167 -0.098084986
-0.053435624 -0.14786603 0.010115169 -0.12221458 0.009572586 -0.024446126 0.053883173 -0.012522748
-0.054653496 -0.015596803 -0.02777824 -0.16553985 0.073854595 -0.17741379 0.031465117 0.026602805
-0.081737384 -0.047102798 -0.046314213 0.058334753 -0.117508195 -0.023084061 -0.048177063 0.0006719788
-0.06856393 0.017725302 -0.004300505 0.009013445 -0.1808263 -0.10061196 -0.06980725 0.0023229867
-0.010620958 -0.026036043 -0.07585447 -0.04018449 0.021864038 3.395214e-05 -0.04768827 -0.08541591
-0.07627955 0.026208507 0.02496312 -0.113320015 -0.03307752 -0.07069973 -0.15049437 -0.12597384

weight f4 [12, 128]
00000000: e238 003c d4d3 f1bc 87b0 4f3c 0b8a 143d
00000010: c827 5e3d 3507 e13c b62f 123d 6e25 a13c
00000020: d12a c5bb aa5f 4dbd 3524 d93c 6701 793d
00000030: 8361 033d 26a1 1f3d 20d3 593d 186d 24bc
00000040: 258f 68bc 9f1a 05bd f40e d13d 2134 eebb
00000050: 7e0c 1fbd bc8f 13bd 0c7b e63d 0c05 683d
00000060: b769 dfb9 9244 3dbc 7aa4 803c ec3f 273d
00000070: 23c2 4bbc 86b5 a53c 21f5 d83b 2f46 13bd
00000080: 4432 fa3c 9432 0f3c aa7c 17bd 0bf4 703b
00000090: f3e5 fdbb 104d 283c fc1c 28bd 6d10 ab3d
000000a0: 83e5 09bd 564b 85bc 68a0 cdbc 22f5 5c3d
000000b0: 5697 7f3c 4237 e73d eec2 37bd 00be 533c
000000c0: bd1d 4cbc f79d 743d 874a 1b3c 66d2 d3bc
000000d0: b34f f6bc 1aca 7cbc 7330 0dbc 8a39 3bbc
000000e0: 05ae 053b 7cb3 d8bb 258a a73c 2402 873c
000000f0: 60ee 673d a535 75bc 039a 0abd 5c88 c43d
00000100: 7a02 cc3c df13 9e3c 9bb2 14bd f098 b9bc
00000110: 6c06 92bd ddf9 963c 52bf 19b9 c6da 2b3e
00000120: 9645 a83c 8e8d 403a 16ae 4ebd 7123 7fbb
00000130: d377 4f3d 45b0 5e3c 2cc6 713c a6bc 513c
00000140: e5ae 8cbd 3323 983c 00d0 11bc 4cc8 c13a
00000150: dfbf 203c 8744 d8bb f4fe 93bd c26b 3e3d
00000160: f8f1 e03c 47d1 6f3c 672b 9bbd bfba 3bbd
00000170: 4bdb f4bb 7d9e cebc 91de 25bd b7b0 2c3c
00000180: 186e b0bc 8cdb 41bc d002 90bd 6241 663b
00000190: 38e2 45bb 2534 45bd 36bc f9bb 7c5f 263c
000001a0: f570 c63c c6f6 193d f4fd 87bd 7dc7 0c3d
000001b0: 7621 5cbc abfb e63b eacd 2bbc 7360 cbbb
000001c0: c6a6 d6bc c298 cc39 d56c 6fba 9e32 86bc
000001d0: 8a98 bd3c dfe0 77bc 68db f5bc f684 973c
000001e0: 0f00 5fbc a54a 643b 4913 5e3d cf91 673d
000001f0: 6358 d23c 9872 653d 71bc 9ebd 22d0 0d3d
00000200: cf7b 2b3d 1856 95bc 4f4a 91bc 6523 dbbc
00000210: 8fb3 49bc df36 543d ea06 03bd db04 79bc
00000220: 3ef2 ac3c 7225 4fbd 1cfa 38bc c825 ffbc
00000230: 1abb a93c 701e 05bd 6147 4ebd ce92 08bb
00000240: 606c 383b 95fb 7fbd 6667 893d b7b8 b83d
00000250: 9dc4 67bd 1037 c93c aa20 283d be9c 04bc
00000260: 0ba6 8dbc 8bb4 053c 017d d2bc e1da fe3c
00000270: e232 a7bb 47f8 923c 5bed a5bc 35db 163d
00000280: 4cff f73b 1fd0 2d3d c04b abbd 509e 7cbc
00000290: 7c0d 43bc cec8 0d3b b948 31bd 9c48 af3d
000002a0: 1461 353c fd09 fb39 efd6 33bd b6b4 b3ba
000002b0: 8f27 13bc 35de 83bc deaa e63d 5fe9 96bd
000002c0: 5f54 a43c 5a31 e7bc 5bce a93c 1902 6a3d
000002d0: ee18 9fbc e0aa 283d d570 87bd 6266 903c
000002e0: 37ad 1bbd 7e66 ed3b e729 60bd 29e5 0bbd
000002f0: 1c6b 6e3d 126b cb3c 933a 253b fd32 9cbc
00000300: 6721 993c a97f a7bc ceb1 1d3e e313 c4bb
00000310: 48fa 103e 525b cd3c 0f09 583a 5764 b83c
00000320: 134f 1fbd 6b8c 86bd 1652 a0bd 37db 87bd
00000330: 5091 263c 6955 14bd 3ebc fc3b 0f90 963c
00000340: a7ed 5f3d 80fb 333d b757 93bc 8965 f4bc
00000350: dc30 653c 452e 4ebc 82f1 9a3c ac70 aebc
00000360: 309f 413c 8d26 8c3c fefd 69bc 6c66 4e3b
00000370: df49 3fbd 63ce edbb cc1f 1ebc fd0b d9bd
00000380: 335b 96bc 345c da3b c148 5d3d 990e 0c3d
00000390: e242 bb3c ca6e 573d 9de7 7fbd 52d4 b7bc
000003a0: 45a0 dc3b c90c 49bc cfb7 183d 2a4e 7c3c
000003b0: 7a2a 26bd 548b 073c e45f 9dbb 5c38 793c
000003c0: f40b 613c 70c8 593b 4fd4 89bd 5365 173c
000003d0: 5ddd 4fbc e09d b03c cd2e a6bb b84f 23bd
000003e0: 7c74 8c3c b340 b9bb 403a 6f3d 6482 d3bc
000003f0: 1fab d03b c315 a13d 8dd5 393d aed3 873c
0.007826062 -0.029519953 0.012676365 0.03626446 0.054237157 0.027469257 0.035690032 0.019671168
-0.006017067 -0.05014006 0.026506523 0.060792353 0.032075416 0.038972043 0.05317986 -0.010035776
-0.014194285 -0.03249609 0.1020793 -0.007269398 -0.038830273 -0.036025748 0.11253938 0.056645438
-0.00042612638 -0.011551993 0.015703429 0.040832445 -0.0124364225 0.020228159 0.0066210185 -0.035955604
0.030541547 0.008740086 -0.036984123 0.0036766555 -0.0077483593 0.010272279 -0.041043267 0.08352742
-0.033666145 -0.016271275 -0.025100902 0.053944714 0.015600046 0.112898365 -0.044863634 0.0129237175
-0.012458262 0.05972096 0.009478218 -0.025857162 -0.0300673 -0.015429044 -0.008617508 -0.011427293
0.0020397913 -0.006613193 0.020451615 0.016480513 0.056623816 -0.014966403 -0.033838283 0.09596321
0.024903525 0.019296585 -0.036303144 -0.022655934 -0.07130131 0.018429691 -0.0001466249 0.16782674
0.020540994 0.0007345312 -0.05045899 -0.0038931037 0.050651383 0.013591831 0.0147567205 0.012801325
-0.06869296 0.018571472 -0.008899689 0.0014784425 0.009811371 -0.006599966 -0.07226363 0.046489485
0.02745913 0.014637298 -0.07576638 -0.04583239 -0.007472431 -0.025222057 -0.04049546 0.010540179
-0.021536872 -0.011832129 -0.070317864 0.0035134186 -0.0030194651 -0.048145432 -0.0076213134 0.010154601
0.024223784 0.037588857 -0.066402346 0.034369934 -0.013435712 0.007049044 -0.010486105 -0.006206566
-0.02620257 0.00039023726 -0.00091333437 -0.016381558 0.023144025 -0.015129297 -0.030011848 0.018496018
-0.013610854 0.003483453 0.05421761 0.05653554 0.025676912 0.05601749 -0.07750786 0.03462232
0.04186612 -0.01822953 -0.017735628 -0.026750276 -0.0123108765 0.05181014 -0.031989016 -0.015198912
0.021111604 -0.05057282 -0.0112900995 -0.031145945 0.0207191 -0.03249973 -0.05036104 -0.0020839456
0.0028140768 -0.062495787 0.06709175 0.090196066 -0.05658399 0.024562389 0.041046776 -0.008094011
-0.01729109 0.008160721 -0.025694372 0.031110229 -0.0051025013 0.017940653 -0.020254781 0.036830146
0.0075682756 0.042434808 -0.083640575 -0.015418604 -0.01190507 0.0021634581 -0.043282244 0.08558771
0.0110705085 0.00047881893 -0.04390615 -0.0013710472 -0.0089815995 -0.016097168 0.11263059 -0.07368731
0.020059763 -0.028221775 0.02072828 0.057130907 -0.019421067 0.041178584 -0.06613318 0.017626945
-0.038006987 0.007244884 -0.05472746 -0.03415409 0.058207616 0.024831329 0.0025211915 -0.019067282
0.018692685 -0.020446615 0.15399858 -0.005983816 0.14157975 0.025067959 0.0008241096 0.022508783
-0.03889377 -0.06569751 -0.07828157 -0.06633609 0.010166481 -0.036214266 0.00771287 0.01837924
0.054670002 0.04394102 -0.017986162 -0.029833572 0.0139887 -0.012584274 0.018913988 -0.02129396
0.011817738 0.017108226 -0.014281748 0.0031494154 -0.04670131 -0.007257269 -0.009651136 -0.1059799
-0.018354034 0.0066638235 0.05402446 0.03419361 0.02285904 0.05259589 -0.062476743 -0.02244011
0.006732973 -0.012271115 0.03728467 0.015399495 -0.040567853 0.0082729645 -0.004802691 0.015211191
0.01373576 0.0033231042 -0.06729948 0.009240466 -0.012687054 0.021559656 -0.005071497 -0.039870948
0.017145388 -0.0056534647 0.05840516 -0.025819011 0.0063680555 0.07865479 0.045369674 0.016580429

bias f4 [12]
00000000: 092c 213e 8d27 403d 6c7f 46bd 0313 abbd
00000010: 9392 3dbc 4c4c 553b afdf 1f3d ea10 cdbd
00000020: 0414 c2bd bd9b f8bc fc64 e9bc 19ed 79bd
0.15739454 0.04691272 -0.048461363 -0.083532356 -0.011570591 0.0032546697 0.03903168 -0.10012992
-0.09476474 -0.0303477 -0.028490536 -0.06101713
