training/legged_gym/resources/policy/recover_v2_twist.pt (torch, 777150 bytes, 8 tensors)

weight f4 [512, 49]
00000000: 04c9 e5bd 2b73 79bd ba1a 1abb 864c 79bd
00000010: 9903 dd3c e0af cb3c bd1a 57bd d805 72be
00000020: d4b6 763e 572c 3ebe 0b9b 9fbd 78b0 7bbd
00000030: 30e6 f13d 1590 773e bcb8 12bf e2f1 963d
00000040: a3e9 1ebb c68f eabe 664a 20be 2074 243e
00000050: 1c01 7e3e d456 813d 6f06 02bd 48f1 113d
00000060: 3d41 d43d b2ff e73d 27b3 7bbd d47f 4ebd
00000070: 13f9 1bbe 26f2 cc3c c857 5e3d 6b0c 213d
00000080: 848c 3c3e 4ae9 22be d86e 75bd d0e2 173e
00000090: b7fc 60bd 26a7 aa3b d9e0 983c 486f d83d
000000a0: 30ad 4b3d 3891 e0bc 545c b9bd 0e96 a33d
000000b0: 77dc 22be a6ad 143e e660 883d ae90 93bd
000000c0: 5bbf b5bd 2a14 66bd c715 a33c 3647 02be
000000d0: f08a 873d ddf5 d9bd 0bb0 1c3e 36f3 e53d
000000e0: 134d cd3d 137a 953e 0732 8dbd 9762 e7bd
000000f0: d4ac 0f3e 003a bbbd 0294 7ebd 3d73 21be
00000100: 861c cc3d 1552 d2bd 3203 1dbf 1699 83bd
00000110: 6cc2 53bd 3950 bdbc cd5f fa3d 8adb 84be
00000120: 05fc ca3e bb9f da3e b807 19be 7df7 f93d
00000130: 4e46 b2bd b214 7d3d 3313 973c a3cd 80bd
00000140: 9f90 0c3d 2c73 00be d4c4 babd 1364 8cbd
00000150: 0e53 00be e07d f13c 7f31 033e 4be9 c3bc
00000160: 82d4 5d3d 6f87 a3bd f949 213d 50cf 70bd
00000170: 242c 5fbd 1583 08bd 30fe 0fbd cc0c c0bd
00000180: e8bd 9dbd bc70 d8bd 653f 553d 39bd 603e
00000190: 233b cabb 64f9 183d 8540 46bd eefa 5ebe
000001a0: 4bc3 55bd 7259 ffbe 0d39 f83e 8908 12be
000001b0: fbb9 f13d cff2 483e 8ab3 1c3e 005b 563e
000001c0: ad0a 07bf c6e8 32bf 1757 69be 0ff0 e4be
000001d0: 409f b33d d0bf 11be e227 cb3e b207 303e
000001e0: f50f 0bbc b34e 0a3e 059a 16bc 8fc5 2c3c
000001f0: e6bb 44be 4cd3 c9bc df52 133b 4acf 93bd
00000200: 7fc3 c7bd 3c3e 363d f043 a8bc 174c 203b
00000210: 8d36 c0bc e59b 75bd 27b5 80bc 0607 42bd
00000220: edb5 383e 2199 153d 0460 743c d8a7 48be
00000230: 27b5 c1bd 2d8f 8fbb 6991 ecbc 79c4 babc
00000240: 3eba 7cbc d77d af3d 11d9 1ebe ef40 72bc
00000250: ff8c 9abd 3c56 d33b afdc ed3d a96c 88bb
00000260: 8c57 173d 6478 f83d 33e6 94be 35de 063e
00000270: d1f8 aa3b 2ccb a9bc e668 e63a 7317 65bd
00000280: ade9 3ebe 9219 30be a38e 56be b27d d43e
00000290: 9a89 81bd 5af5 b0bd 071f 76be bec2 193f
000002a0: 461d bb3d 5853 36be 3bd1 e4be dbb7 383c
000002b0: 9c74 f2bc 0923 c2bb 2b3c 1ebe 606e b13d
000002c0: 5701 82bc 34d1 0cbe 6c26 1ebe 6776 8abc
000002d0: 320e 583d 670c ffbc af67 f0bc ac1f f83d
000002e0: 6afd 243d f38d e43c 37e2 21bd 96b4 083e
000002f0: 2499 35bc c76d 833d 71ff 8ebd d959 d4bd
00000300: ab74 d23d 6e2e 59bd c702 833d 13b5 78bd
00000310: 0091 8dbd 993a 173d 533b 803b 1459 853d
00000320: 13e2 f23b eb22 b8bd b1f5 b5bd 8148 dbbe
00000330: b888 433e 77e1 a43d 503e 3bbd 2486 f1bc
00000340: 9e14 673d cc42 06bf 30af 2abe c7b6 90bd
00000350: 672f cf3d 3c9b debd 68b2 833e 7d70 973e
00000360: 739f 763e 651c b33e 8015 233f 30f1 b3bd
00000370: d05b 33be 3700 47be 5aa9 ad3d c0c8 c43b
00000380: 639f ff3c e418 c8ba 4296 00bd e9ef 4f3d
00000390: 5028 85bd 0e8e 4a3d ccd2 043d 9bda 13be
000003a0: b034 dbbd 8b96 d33d 87a4 88bd c404 503c
000003b0: b4bf d6bd e666 f63d 921e d43c 27d9 fbba
000003c0: 53ee b33d cb73 a7bd 4bbc febc 0ecd 1fbb
000003d0: d649 d33c 7dec 5fbd 0c01 25bd f75d f23d
000003e0: 6194 a13d ad36 fe3c 7130 16bd ff23 5bbe
000003f0: 1530 07be 651b aabe d288 823d 87aa 143e
-0.11219981 -0.06090085 -0.0023514465 -0.060863994 0.026979255 0.024864137 -0.052515734 -0.23635042
0.24093181 -0.18571602 -0.07793244 -0.06144759 0.11811483 0.24176057 -0.5731313 0.07370354
-0.0024248145 -0.45812815 -0.15653381 0.16059923 0.2480511 0.06315389 -0.031744417 0.035630494
0.10364006 0.11328067 -0.06145015 -0.050414875 -0.15231733 0.02501781 0.054282933 0.039318483
0.18412977 -0.15909305 -0.059920162 0.14832616 -0.054928508 0.005207914 0.018661903 0.105681
0.04972571 -0.027412996 -0.09050813 0.07987605 -0.15904413 0.14519367 0.06659107 -0.0720533
-0.08874389 -0.056171574 0.019907845 -0.12722477 0.06618297 -0.10642598 0.1530153 0.112280294
0.10024466 0.29194698 -0.068943076 -0.112981014 0.14030772 -0.09141922 -0.06215287 -0.15766616
0.09966378 -0.10269562 -0.61333 -0.06425683 -0.051699087 -0.023109542 0.12225304 -0.25948745
0.396454 0.4269999 -0.1494435 0.12205408 -0.08704816 0.061787315 0.018441772 -0.06289222
0.03431761 -0.12543935 -0.09119573 -0.06855025 -0.12531683 0.029478967 0.1281185 -0.023914954
0.05415774 -0.07984816 0.039377186 -0.05879146 -0.054485455 -0.033328135 -0.03515452 -0.09377441
-0.07702237 -0.105683774 0.05206241 0.21947183 -0.0061716004 0.037347212 -0.048401374 -0.2177541
-0.0521882 -0.4987293 0.48481026 -0.14261068 0.11803051 0.19623874 0.15302864 0.20933151
-0.52750665 -0.69886434 -0.22787128 -0.447144 0.08770609 -0.14233327 0.39678866 0.17190436
-0.008487691 0.13506584 -0.009191995 0.0105451485 -0.19212303 -0.024636887 0.0022479815 -0.072172716
-0.09754085 0.044492945 -0.020540208 0.0024459416 -0.023463512 -0.059963126 -0.01571138 -0.04736998
0.18038149 0.03652299 0.01491547 -0.19595277 -0.0945838 -0.0043810816 -0.02887793 -0.022798764
-0.015425263 0.08568924 -0.15512492 -0.014785989 -0.07546424 0.006449489 0.11614358 -0.004163344
0.036948726 0.12132338 -0.29081878 0.13170703 0.0052176495 -0.020726763 0.001757887 -0.055930566
-0.18643828 -0.17197254 -0.20952849 0.41502148 -0.063250735 -0.08640547 -0.24035273 0.6006278
0.09136443 -0.1780523 -0.4469088 0.011274303 -0.02959662 -0.0059245867 -0.1545264 0.086636305
-0.01586978 -0.1375168 -0.15444344 -0.016902162 0.052747913 -0.031133844 -0.029346315 0.12115416
0.040280737 0.027899718 -0.039522376 0.13350138 -0.011083875 0.06417423 -0.06982315 -0.103686996
0.10276159 -0.053022794 0.06397014 -0.06071956 -0.06912422 0.036921117 0.003913322 0.06511131
0.007412204 -0.08991035 -0.088847525 -0.42828754 0.19095123 0.080508165 -0.045713723 -0.029482909
0.056416146 -0.52445674 -0.16668391 -0.07066112 0.10116463 -0.10869452 0.2572205 0.2957801
0.24084263 0.349826 0.6370468 -0.08786237 -0.17515492 -0.19433676 0.08479567 0.0060053766
0.031203931 -0.0015266207 -0.031393297 0.050765906 -0.065018296 0.04945188 0.032427594 -0.1443886
-0.10703409 0.10331448 -0.06672006 0.012696449 -0.10485783 0.12031345 0.025893483 -0.0019214497
0.08785691 -0.08176383 -0.031095644 -0.0024383697 0.025792044 -0.054668892 -0.0402842 0.118343286
0.07889629 0.03103193 -0.03666729 -0.2140045 -0.13201936 -0.33224025 0.06373753 0.14518176

bias f4 [512]
00000000: c2de ea3d 15d3 bbbc 9455 fc3d a29d e43d
00000010: a016 003e b0a8 3f3d 2977 e03d 9cd6 a93c
00000020: 9b20 03be 9d81 773e ad8e 243e 12e1 5dbe
00000030: 95c7 84be 8942 4b3d 7546 54be 0a19 a23d
00000040: ad41 033e 3573 4bbe ad75 49be 7c49 a7bd
00000050: c204 d8bd eb8b 0bbd f00c 17be 80f6 16be
00000060: e0b3 36be ae24 ed3d fa56 fabd 096d 283e
00000070: b644 eebd 46f0 173d d8c7 243d e04c 68be
00000080: c723 fb3c 2373 bfbe 0e84 013e ff50 92bd
00000090: b5a5 a23d 9856 1e3e de02 8bbc 964e 22be
000000a0: eb28 85bd 8bc4 08be 4914 b63d 72a6 2abc
000000b0: 930e 2f3d dba9 753e 4ecf 04be 0d50 cbbc
000000c0: c675 1fbe 3e4e 3cbe 0514 503c 85cd 48bc
000000d0: c9be 3cbe 8d7b 2bbd 1c63 eebd bacc debd
000000e0: a62a f7bc f3a7 54be 7643 1a3e 4993 9ebd
000000f0: 89cc 5bbd 1f0e f7bd 6023 c1bd 4d98 abbd
00000100: 4d4b 41bc 48ee 783d 0cf8 95be 5f72 5cbd
00000110: a900 e0bd 3a73 07bc 32fb b53d c8c4 0a3e
00000120: c187 35be 7730 f83d db93 d33d db9c 0f3d
00000130: 5822 a33c 6e02 fdbc 2c5d 873d f2ec ab3e
00000140: e667 c5bd 86c1 9abd 3ca3 563e 54aa 0f3d
00000150: 9486 5a3e 6145 7dbe 4c23 1d3e 5290 2abd
00000160: b3c3 4fbe afd7 1d3e 13dd 433e 0ffa fbbc
00000170: 3b6a 27be 587e 68be e8da 4abb 63bd c13d
00000180: ab29 c1bd a896 62be 1c46 5abe 9518 66be
00000190: 8ef6 41be e79f 4f3e f903 a3bd 87b7 00be
000001a0: 23e4 0abe a881 5cbe 0e93 4a3e 5770 de3d
000001b0: 35d6 b0bd b22c 203e af8e fcbd 14c6 81bd
000001c0: 09e3 b23d 47d2 07be 9d25 903c c732 3d3e
000001d0: d530 bd3d 52cd 163e 5d61 503e d398 773d
000001e0: 14ab 31be 4006 f8bd 8f27 62bc 4b4f c1bd
000001f0: df5a 7cbd 8fbe 953d 765e 063c befd b9bd
00000200: 9fc4 963d e56b a53d 7bcc debd a819 d9bd
00000210: 15ee 6bbd 7c86 16be 13bb 4dbd ee26 02be
00000220: 7b78 16be 1e25 873d 82a2 c6bd 8dcc 893c
00000230: 5fb6 563d e42c d53c feb6 ebbd d7d3 f73d
00000240: e676 2b3e b5fa 2c3e b488 4bbd 3748 6cbd
00000250: 681a 11be 6e9a 72bd ec11 a5bd 2fda ea3b
00000260: ff3f 463e 132f b13b 3a75 5abe 1e5c ad3d
00000270: ca33 37be d3db ed3d 9c31 c73d 1a3f 543d
00000280: 27e4 29be 6c52 0fbd 2435 91bd ba91 19be
00000290: 749c 01bb 6ffb 6fbc 45fc 4cbe 76b6 893d
000002a0: 5cc6 ca3d 407c ce3d 09a5 47be 0d6d 313e
000002b0: 8977 2ebe 411a 663c 4e33 e7bd f990 133d
000002c0: fb98 3d3e 6463 a3bd 208f 8abe b90a 00be
000002d0: e314 713e 39f6 e83d 5d9f 55bd 0f63 0a3d
000002e0: 6c87 cf3d c07b ec3a eb47 1bbe 213e 753a
000002f0: e0f9 e0bd 9915 e23d a019 3dbe f99b 053d
00000300: 2714 1d3e 886d 053e 0b97 9a3c 7e4d 893d
00000310: f2ab 30bd 76b4 253e 05ec 1abd 2600 e63c
00000320: 50b3 43bd 9384 b73c 6eff 8ebd 1bd8 1c3e
00000330: d69e 563e ca20 84be 0633 2b3e 5e0f 81be
00000340: 25b2 86be 5611 41bc 8732 5ebe deb9 c93d
00000350: 57ad 0f3e 80aa af3d af11 43be bded 1ebc
00000360: fa41 543e 5156 7d3d 5bb4 123e a6d6 143e
00000370: 2445 82be ca20 80be dfa2 21be 1c10 293e
00000380: 4583 83bd de61 20be b833 913d a461 ffbd
00000390: 8a51 c9bd 215f 13be f645 ab3d ca76 23be
000003a0: f1c0 223e cead 1e3e 2f0b 5abe 1f6e b7bd
000003b0: 1ded e63c a4eb f1bd 6178 5ebe c8dd bf3d
000003c0: 6010 9d3d fb7e 4e3e 1a76 343e 2f02 2dbe
000003d0: 4a8a 21be d28c f0bd 1eab 27be 055f 7abd
000003e0: 6344 2dbe 4a9a eabd 8323 15be 377f 243e
000003f0: fd59 98be edeb 1dbe 97fc c7bd 53f6 c9bb
0.11468269 -0.0229278 0.1232101 0.111628786 0.12508631 0.046791732 0.10960228 0.020732217
-0.12805407 0.24170537 0.16070051 -0.21667889 -0.2593352 0.049624 -0.20730002 0.07914932
0.12818022 -0.19868167 -0.19673796 -0.08168313 -0.105477825 -0.034068983 -0.14751029 -0.1474247
-0.17842054 0.11579262 -0.12223621 0.16447844 -0.11634199 0.037094377 0.04022965 -0.22685575
0.030656708 -0.3739253 0.12648031 -0.07144355 0.07941762 0.1546272 -0.01696914 -0.1585029
-0.06501945 -0.13356225 0.08890588 -0.01041566 0.04273851 0.23990576 -0.12969705 -0.024818445
-0.15572271 -0.18389222 0.0127000855 -0.012256031 -0.18432154 -0.041865874 -0.11639997 -0.10878892
-0.030171704 -0.20767193 0.15064797 -0.07742936 -0.053661857 -0.1206324 -0.09430575 -0.083786584
-0.011797738 0.060774118 -0.29290807 -0.05382001 -0.10937626 -0.008267218 0.08885802 0.13551629
-0.17727567 0.12118619 0.103309356 0.0350617 0.019913837 -0.030884948 0.06609568 0.33579212
-0.09638958 -0.07556443 0.20960706 0.035074547 0.213404 -0.24733497 0.15345496 -0.04164154
-0.20289497 0.15414308 0.19127302 -0.030758886 -0.16349117 -0.22704446 -0.0030953232 0.09459951
-0.09431776 -0.22127783 -0.21315807 -0.22470315 -0.1894171 0.20275842 -0.07959742 -0.1257001
-0.1356359 -0.21533835 0.1978266 0.10861271 -0.08634607 0.1564205 -0.12331902 -0.063366085
0.0873471 -0.13263808 0.01759606 0.18476401 0.092378296 0.14726761 0.20349641 0.06044848
-0.17350417 -0.12110567 -0.013803377 -0.09438952 -0.0616101 0.07311737 0.008201232 -0.090816006
0.07361721 0.0807722 -0.10878845 -0.10600597 -0.0576001 -0.14699739 -0.050227236 -0.12710163
-0.14694397 0.065988764 -0.09698965 0.01682117 0.052420016 0.026022382 -0.11509512 0.12100952
0.16744575 0.16892512 -0.049690917 -0.057686057 -0.1417023 -0.059229307 -0.08060059 0.007167123
0.1936035 0.005407223 -0.21333781 0.084648356 -0.1789085 0.11614194 0.09726259 0.05181799
-0.1659094 -0.034990713 -0.07090214 -0.14996997 -0.0019777091 -0.014647349 -0.20018108 0.06724255
0.09901115 0.100822926 -0.1949655 0.17326756 -0.17037787 0.014044345 -0.112890825 0.03602693
0.18515389 -0.07977942 -0.2706232 -0.1250409 0.23543124 0.11375088 -0.052153934 0.033785876
0.101332515 0.0018042251 -0.15164153 0.0009355266 -0.1098516 0.11039276 -0.18466806 0.03261945
0.15339719 0.13030064 0.018870851 0.067042336 -0.04313273 0.16182122 -0.037822742 0.028076243
-0.047778428 0.022402084 -0.06982313 0.15316813 0.20959029 -0.25806266 0.16718683 -0.25207037
-0.26307788 -0.011783918 -0.21698962 0.098499045 0.14030968 0.08577442 -0.19049715 -0.009700236
0.20728293 0.061849896 0.14326613 0.14535007 -0.25443375 -0.25025016 -0.15784787 0.16510051
-0.06421522 -0.15662333 0.07089943 -0.12469795 -0.098300055 -0.14391758 0.08362953 -0.15963283
0.15893914 0.15495989 -0.21293329 -0.08956551 0.028189236 -0.11812523 -0.21725608 0.09368473
0.07669139 0.20165627 0.17623177 -0.16895364 -0.1577541 -0.11745609 -0.1637387 -0.061125774
-0.16920619 -0.114552096 -0.14564328 0.16064154 -0.29756156 -0.1542203 -0.097649746 -0.0061633973

weight f4 [256, 512]
00000000: a963 83bd b335 3abd 7f43 06bd 855c 7ebd
00000010: f482 2fbd e240 ba3c fe69 73bd b5d6 a3bd
00000020: 889e 79bd 42c3 bebd 9f57 04be 8f08 453d
00000030: 8cce 693d f6a4 043c 603f 563d 4ceb b0bc
00000040: bd78 2ebe ca4e c9bd 8a62 513c 25a9 3cbc
00000050: c808 26bd ae39 a739 b21d 86bd 6b91 093d
00000060: d4e3 ea3c 206c f6bd 97ac 2bbc df40 453b
00000070: 4759 7fbc 92a2 5d3d 106a 293d 0464 5f3d
00000080: 95b0 b23d 1649 d83d f669 64bd 4fff c6bb
00000090: 98ab 0f3c b800 94bc 394a 18bd 5b0e e8ba
000000a0: f9f9 92bc b0a2 a5bc 5912 be3c bdf6 c4bb
000000b0: ae95 a53d 32d1 9ebc ea67 fc3c 3802 093d
000000c0: c7c3 00bd b491 9ebd f994 76bd d475 c23c
000000d0: ce0d a4bd c70e 613d b7bb e63b d6ca 5e3d
000000e0: 5859 debc c2d7 fa3b 2ee5 9bbb 0bd2 c03d
000000f0: e251 923d f550 b7bd c504 e1bb 1d86 6dbd
00000100: 1bca 86bd 161e c9bc 8937 d3bb bc46 dcbc
00000110: e99b bfbd d680 513b 0a39 13be ad6d 1f3d
00000120: e2de bd3d 1e3b 063d f60d 68bd 2601 3e3a
00000130: 6d00 973c 1901 ef3c 60f5 2b3b 7b52 6ebd
00000140: 50f4 7cbd c7e7 6bbd e337 8c3d 5c84 c23c
00000150: ab09 23bd 3979 ee3d 9f34 d7ba 111d 2fbc
00000160: 67d6 843d 87af 75bd e646 4dbd cc0f 773c
00000170: e8b8 6ebc 6fbe 313d 08fa 2a3d 6763 c8bd
00000180: 36d3 4b3d 0205 d63d 5e1d b93d 601a 733b
00000190: 85d9 9a3d 9ab2 d6bd 30ac c03d 6101 dbbc
000001a0: e749 a6bc 2c7f ab3d cc94 7bbd 22a2 65bd
000001b0: b8c8 dabc 39ca dabc 71bf f4bd fcf2 0b3e
000001c0: 6f8c 823d 902e 9abc 00de 5dbd 40b4 bfbd
000001d0: 08a5 263d 7a03 eebd b176 35bd 2e01 533d
000001e0: ee38 13be 9d73 273e 216a dfb8 e3a3 81bd
000001f0: 8d81 e73c 305f f9bc 80f7 b4bc 5008 b2bc
00000200: fb0b 363b 8542 edbc d8ce 0fbd f34a 1c3e
00000210: 7a61 00bb 6e88 03bd 65ee cf3d 2bb7 3e3c
00000220: 6841 01bd a206 d4bd 20e6 a9bd c86c e7bd
00000230: f0e6 853c 5a5b a03d b0ff 50bb 46ca 043d
00000240: 5d3d b7bc 81ca e8bd 81b3 99bd 300b 55bd
00000250: 37e8 32bd b3a7 5e3d 483a 61bd 9b9f 77bc
00000260: 2bf9 ab3b 5e11 c73c a74c 233d aa69 523c
00000270: bbd1 df3d 803f 3fbc 4a4b 34bd a667 22bd
00000280: 1d11 37bd 282b 26bb c18e 2b3d 9dfa 97bd
00000290: 97e5 07bc a8dd 5bbd 1520 e23d 7bf5 7a3c
000002a0: c797 5b3d 4fd7 15bd 8286 04bd 5063 c7bd
000002b0: eddd fe3b 771b 2bbd e4ea 2a3d 88ed 94bd
000002c0: 8b7c d0bd bef5 d43c b8ee b9bc 81dc 423e
000002d0: d9c7 debc 09be 03be 9b23 323d e0c0 20bd
000002e0: bf95 eb3c d9a6 ff3b 0b15 adbc 8d8d 83bd
000002f0: ba0d 193b 01b4 c43d 4eb4 12bd 7ad0 163c
00000300: 0844 3ebc 1ff7 a4bd 5376 e3bd 400e 45bd
00000310: 8c41 943d 704c 46bc 6d50 203d 1574 b7bd
00000320: a3ca e33c 2fdb 54bd 1bdd 55bc f343 4dbc
00000330: ec90 88bd fa76 88bb 097d 0c3c a918 113e
00000340: 1ae7 a73d 44ee 8fbd b4fb 993d 1a55 d03c
00000350: 74ab 413b 71aa 68bd 7f7e ae3b b31e c13c
00000360: 7b61 b33d f9c5 8abd 15f9 37bd 0932 e63d
00000370: e7c0 92bd 17a4 e23d 56cd 013e 8c5d d3bd
00000380: 178b 853d 2f90 a53c 015e 2bbd 68d4 0e3e
00000390: 2a08 b9bc 665b a23d 0e12 97bd 71cc 623c
000003a0: 293a 07bc 0956 04bd 4d42 a4bc aa47 9abc
000003b0: 1330 4d3c e592 3bbc dff1 9ebb 9577 85bd
000003c0: c635 043c dfbe debc 5358 993b c93a 5e3d
000003d0: a4d5 c23c 35da d5bd ed76 e33d 6c7a d6bd
000003e0: 1a9d 20bd f8b0 873b ad46 893d 83c7 54bc
000003f0: c4ef 16bd 0468 a93d 86c8 613c d218 6d3d
-0.06415493 -0.045461368 -0.032779213 -0.062099952 -0.042849496 0.022736017 -0.059427254 -0.079999365
-0.060942203 -0.09314586 -0.1292405 0.048103865 0.057081744 0.00809597 0.052306533 -0.021596573
-0.17038245 -0.09829481 0.012779841 -0.011514937 -0.04053572 0.00031895697 -0.06548633 0.033585947
0.02867309 -0.12032342 -0.01047816 0.003009848 -0.01558525 0.054110117 0.041360915 0.05453874
0.087250866 0.10560815 -0.055765115 -0.0060729156 0.0087689385 -0.018066749 -0.03718016 -0.0017704474
-0.017941462 -0.020219177 0.023202108 -0.006010859 0.0808519 -0.019386861 0.030811269 0.03344938
-0.031436708 -0.077426344 -0.060200665 0.023737825 -0.080104455 0.054945733 0.0070414203 0.05439266
-0.027142212 0.007655115 -0.004757545 0.094150625 0.07144524 -0.08950988 -0.0068670237 -0.05798923
-0.06581517 -0.024550479 -0.0064458293 -0.026889198 -0.093559094 0.0031967661 -0.14377227 0.038922954
0.09271027 0.032771222 -0.05665394 0.0007248096 0.01843282 0.029175328 0.0026238784 -0.05818413
-0.061756432 -0.057594087 0.06846597 0.023744754 -0.039804142 0.11644215 -0.001641888 -0.010688082
0.064862065 -0.05998185 -0.050116442 0.01507945 -0.014570452 0.043394502 0.041742355 -0.097845845
0.049761973 0.10450174 0.090388045 0.0037094578 0.0756102 -0.10483284 0.09407842 -0.026734056
-0.020298911 0.083738655 -0.0614212 -0.056062825 -0.026707038 -0.026707755 -0.11950577 0.1366691
0.06374442 -0.01882103 -0.054166794 -0.09360552 0.04068473 -0.11621757 -0.044302646 0.051514797
-0.14377186 0.16352697 -0.00010653237 -0.06330087 0.028260017 -0.030440897 -0.022090673 -0.02173248
0.0027778137 -0.028962383 -0.03510937 0.15262966 -0.001958935 -0.03211253 0.10152892 0.01164035
-0.031556517 -0.103528276 -0.08295846 -0.11300045 0.016345471 0.07829924 -0.0031890683 0.032419465
-0.022368127 -0.113667496 -0.07504941 -0.052012622 -0.04367849 0.05435915 -0.054987222 -0.0151137365
0.005248209 0.024300274 0.039868023 0.012842575 0.10928675 -0.011672854 -0.044017114 -0.039649628
-0.044694055 -0.0025355313 0.041884188 -0.074208476 -0.008294485 -0.053678185 0.110412754 0.015317316
0.053611543 -0.036582287 -0.03235484 -0.09735739 0.0077779205 -0.04177424 0.041727915 -0.07271868
-0.10180005 0.025996085 -0.022696838 0.19029428 -0.027194904 -0.12865461 0.043490987 -0.03924644
0.028757928 0.007801872 -0.021128198 -0.06423483 0.002335413 0.096046455 -0.035816483 0.009204978
-0.0116129 -0.08054947 -0.11106553 -0.048109293 0.072390646 -0.012103185 0.0391392 -0.08957688
0.027806586 -0.051966842 -0.013053204 -0.012528407 -0.06668267 -0.0041645737 0.008574733 0.14169563
0.08198376 -0.070278674 0.07518712 0.025431205 0.0029551657 -0.05680317 0.005325138 0.023574209
0.08758827 -0.067760415 -0.044915278 0.11240012 -0.071656995 0.11066454 0.12675986 -0.10320577
0.0652067 0.020210354 -0.041837696 0.13948214 -0.0225869 0.07927589 -0.073764905 0.013842688
-0.008253613 -0.032308612 -0.020051146 -0.018833 0.012523669 -0.011448597 -0.0048506106 -0.06516949
0.008069461 -0.027190624 0.0046797185 0.05425528 0.023783512 -0.1044201 0.11106668 -0.10472569
-0.039212324 0.0041409694 0.067029335 -0.01298702 -0.036849752 0.082717925 0.013780719 0.057885

bias f4 [256]
00000000: ef57 f1bd 3021 6abd 645a f1bd f59c 36bd
00000010: d537 97bd 638e f93a 16cc 94bd af34 9fbd
00000020: bef8 3bbd 4b96 73bc ac3b 44bd 139e d4bd
00000030: 8d9f f4bb 59d5 96bd dc1d 8cbc f48a ddbd
00000040: 3f32 a0bd 331b 0f3d fcca cebb d2bf 7bbe
00000050: db07 d43c eb0d 8abc c773 253d 8b66 9fbb
00000060: 41f2 0bbd 3d18 64bd b89a 00be 8926 8bbd
00000070: 4022 62bd cbbe 11bd e29d 333d 0f0f adbd
00000080: 6af7 46bd d860 013d f9e6 8bbd 7ba0 4c3d
00000090: b545 f6bc 0805 c43c 6e8c 2ebd 0048 933a
000000a0: bf55 d93a 1af2 d7bd 4710 1dbd 2e93 aebd
000000b0: a305 24bd 2f06 0fbc 0ef2 8fbd afc1 a6bc
000000c0: 6492 14be 7813 25bd 65e4 f0bd 85ab 49bb
000000d0: 1585 b2bc d190 d7bd 9edc a9bc a308 683d
000000e0: 1ced d2bc 7c98 2f3c 6122 97bd 8372 03be
000000f0: 4f3c 78bd 04a0 94bd c572 ae3a 5cf6 f9bd
00000100: cc37 19bd fd15 34bd 3051 07bd ba61 e4bd
00000110: 8ef9 a7bd 9664 9abd b1af 3e3d 05f1 aabc
00000120: cf20 74bd e9d1 80bc 890e febc 0717 e7ba
00000130: 3d37 b6bd 91a9 de3c 4ae4 d6bd ae6b f3bd
00000140: de59 f5bb d8f9 843c ade0 07bd 784c 7dbd
00000150: bbb1 7bbd b333 76bd eca6 3dbd c4ab 81bd
00000160: e72a 493b 7a74 a1bd 95c7 703c 21ef edbc
00000170: 1aaf f5bd dc20 87bd 1f0c 153c d22d d73a
00000180: e72d e6bc c31f 11be 250a 5cbd 2b8e d03b
00000190: 65b3 78bd 5dbe 373d 1a7c 88bd a98a 0ebe
000001a0: 910d 34bd 9b94 debd 7a86 25bd 44c9 2abc
000001b0: 3995 e9bd 2bba 0b3d 8596 68bd d36d 22be
000001c0: 46ee 20be 7a91 d0bd 222c 5cbd 448a 61bd
000001d0: 52cb 42bd 2a08 b3bd 729b 13bd 3d2d 05be
000001e0: ad48 3bbc 7c2c d0bd efb0 efba f31c f63a
000001f0: 6b07 093d 35ef 883d 6f0b 1cbd 2b0e 8cbd
00000200: 77b1 19be 203b 2cbd 7aac f2bd 982e 2ebb
00000210: 5fe4 0ebd dd75 14bd f22a ff3c 88a0 5c3c
00000220: 0d21 ddbd 7d2d f2bd e174 f7bd e98e 26bd
00000230: becc d2bc 9f22 14bd bc2f 64bd 7b19 0dbd
00000240: 20e0 82bd 8ede 1ebe 7b84 5d3c b176 01be
00000250: 2ffb 843c a060 a7bd 473d 1cbe 0a39 70bd
00000260: 56ce 4cbd a7f2 d0bc c788 873b d466 3cbc
00000270: 30c9 8cbc 6e49 dcbc daf6 8dbd c27a 85bd
00000280: 2e72 30bd d484 0bbd a31e 2ebd dcce a6bd
00000290: e958 bbbd f8ca 63ba 58d3 8ebd 009f 5fbd
000002a0: 11c7 c53b 40d9 bdbd 4eae b1bd f2aa 2bbc
000002b0: 2e58 9ebc 7981 ca3b 2654 cbbd 1158 31bc
000002c0: 119e 0abd cd58 85ba 0e49 c9bd 863c 04bc
000002d0: b781 adbd 0dd4 dabc bb2b 6fbc fdba cd3b
000002e0: a7b8 f2bb 8649 42bd 9840 e7bc ff90 ccbd
000002f0: ad38 27bd 20bf ebbd e117 a8bd 6ed9 b3bd
00000300: 02b6 96bd a7a5 6abd afad 06be 377a 17be
00000310: dd7c d8bc a86b b2bd 3e96 8cbc bc8d 61be
00000320: b193 63bc 841e 623c 3898 20bd 02a6 51be
00000330: 077c 403c 836e 66bd 0940 1fbe 4677 6abc
00000340: 58ff b5bd 795b 06be 53a3 41bd f60e 963d
00000350: 80d1 59bd 0819 93bd 0da2 56bd adfe fdbd
00000360: a733 643c 61a1 f6bd 32d0 a8bd de32 a5bc
00000370: 6a26 13be ff19 183c 9b98 56bd fffe b5bd
00000380: 80a9 84bd bb0c 86bd efd8 c8bb c990 dfbc
00000390: e34c d2bd 9328 33bd b3e1 c1bd 6d1b 2fbe
000003a0: 092d 9cbd b53d 1d3c 40cb ecbd 208b 05be
000003b0: b69e 59b9 3cbb f2bd 96e4 8cbc 7c33 40be
000003c0: 5e97 9dbd c22b 98bd 1bf2 04bd 48a2 20be
000003d0: f279 52bc ac31 3ebd 9515 1d3d 5746 2c3c
000003e0: 9dd0 8fbd c710 75bb 26e3 fcbb c998 05be
000003f0: 8196 3bbd a829 f9bd 0f8b 54be 089a d6bc
-0.1178435 -0.057160556 -0.11784819 -0.04458328 -0.07383696 0.0019039627 -0.07265489 -0.077737205
-0.045891516 -0.014867376 -0.04790847 -0.10381713 -0.007465309 -0.073649116 -0.017104082 -0.10817519
-0.07822084 0.03493805 -0.0063108187 -0.24584892 0.025882652 -0.01685234 0.040393617 -0.004864519
-0.03416658 -0.055687178 -0.1255902 -0.067944594 -0.055208445 -0.035582345 0.04385174 -0.08450138
-0.048575796 0.031586498 -0.06831164 0.049957734 -0.030062536 0.02392818 -0.042614393 0.0011236668
0.001658134 -0.10544224 -0.0383456 -0.08524166 -0.040044438 -0.008729502 -0.0702859 -0.020356027
-0.14508969 -0.04030177 -0.11762313 -0.00307724 -0.021791974 -0.105256684 -0.020735081 0.05664886
-0.025747828 0.010717507 -0.07379604 -0.12836652 -0.06060439 -0.07257083 0.001330935 -0.122051924
-0.037406728 -0.043966282 -0.03303641 -0.11151452 -0.08201896 -0.075387165 0.04655427 -0.02086688
-0.0596016 -0.015725093 -0.03101279 -0.0017630764 -0.088972546 0.027180465 -0.104927614 -0.11885773
-0.0074875196 0.016232416 -0.033173252 -0.061840504 -0.061448794 -0.060107898 -0.046301767 -0.0633159
0.0030695738 -0.07883544 0.014696022 -0.02904469 -0.119962886 -0.06598064 0.009097128 0.0016416854
-0.02809806 -0.14172272 -0.053720612 0.006364604 -0.06071796 0.04485928 -0.066642955 -0.13920082
-0.04395825 -0.10868188 -0.04041145 -0.010423962 -0.11405415 0.03411309 -0.05678417 -0.15862207
-0.15715894 -0.101839975 -0.053753026 -0.0550635 -0.047557183 -0.087417915 -0.036036916 -0.13005538
-0.0114309015 -0.10164735 -0.0018286983 0.0018776938 0.03345434 0.0668625 -0.03809684 -0.0683864
-0.15009104 -0.042048573 -0.118493035 -0.0026578065 -0.03488576 -0.036245216 0.031148408 0.013466008
-0.107973196 -0.118250825 -0.1208284 -0.040663633 -0.025732394 -0.03616583 -0.055709586 -0.03444813
-0.06390405 -0.15514585 0.013520355 -0.12642933 0.016233055 -0.08172727 -0.1525775 -0.058648147
-0.050001465 -0.02550633 0.004136178 -0.0114991255 -0.017185777 -0.026890483 -0.06931849 -0.06517555
-0.04307764 -0.03406222 -0.042509686 -0.08144924 -0.09147818 -0.00086896075 -0.06973904 -0.054594994
0.0060356935 -0.09269953 -0.08675824 -0.010477768 -0.019329157 0.006179985 -0.099281594 -0.010824219
-0.03384215 -0.001017356 -0.09828387 -0.008071071 -0.08472007 -0.026712442 -0.0145978285 0.0062783943
-0.007407266 -0.0474334 -0.028229043 -0.09988593 -0.040825535 -0.115110636 -0.082076795 -0.08781706
-0.07358934 -0.057286885 -0.13152193 -0.14792715 -0.026426727 -0.0871194 -0.017161485 -0.22026724
-0.013890193 0.013801221 -0.039207667 -0.20473483 0.01174832 -0.056257736 -0.15551771 -0.014310664
-0.088865936 -0.13120832 -0.0472749 0.07327072 -0.05317831 -0.07182509 -0.052400637 -0.12402091
0.0139283305 -0.12042499 -0.08242835 -0.020165857 -0.14370123 0.009283542 -0.05239163 -0.08886527
-0.06477642 -0.06545397 -0.006129376 -0.027290719 -0.10268571 -0.043739866 -0.09466877 -0.17100306
-0.07625777 0.009597232 -0.11562204 -0.13041353 -0.00020753857 -0.118521184 -0.017198842 -0.1876964
-0.076948866 -0.07430221 -0.032457452 -0.15686905 -0.012846457 -0.04643409 0.03835066 0.010514817
-0.07022212 -0.0037394033 -0.007717508 -0.13046564 -0.04579783 -0.121661484 -0.20756172 -0.026196495

weight f4 [128, 256]
00000000: 61f2 aabd bde8 c03d c410 0bbe 841c 1f3d
00000010: bb5e 22bd e4e4 363d 2ab0 843c 84b9 9ebd
00000020: 5b85 033e b2db 423d 5a27 333d 9530 49be
00000030: 14b7 56bd 0f99 b1bd 47ee 26be d7e8 babd
00000040: 1bdf d53a 5dae 953d 7753 8f3c 51bd 0b3d
00000050: 0c8d 103d 0329 0f3d 469d a6bc 0da0 493d
00000060: 8bfb a83c eb11 9e3d 1e50 043e 833f a33d
00000070: 775c 5cbd 651a 08be 453f e9ba d886 83bc
00000080: 2088 89bd d228 c4bd 23f8 83bd 2b91 a33a
00000090: d3d9 6ebd 60b9 dabc 2d68 a13b bcb4 75bd
000000a0: fa17 e2bb 83c0 be3c 5b28 9b3d 7afd 813c
000000b0: 8144 ebbd f538 3f3c 5bca 0f3d 454b a93d
000000c0: 7b5a bfbb f91a a23c bbc1 883d c3f8 84bd
000000d0: 11fa 19be 48ba 66bc 2a56 b63d 3832 823d
000000e0: efc7 63bd 7e36 12bc 457c 96bc 1a31 d03d
000000f0: 17f7 bd3d 344b e33c 2d22 b2bd ecc7 85bd
00000100: 201d 5bbd 1da2 033e 4265 81bd 0a6c 223e
00000110: 9628 b7bd 6dbf 2ebd 8eaa 2f3a c3e2 91bd
00000120: 2042 a23d a8d8 06bc c0cc 67bd 8b42 d1bb
00000130: 1c58 6f3a 0052 163d 4c37 383d 1fee a53d
00000140: 6bb4 89bd 223f c6bd 7921 a7bc fa1f 0b3d
00000150: 3031 babb 6d39 393d 5496 b43b 9986 8a3d
00000160: 6e11 dbbc 51be 09bd 8a96 b53c 845f 113d
00000170: ed9d a83c 2d1a a93c 16de acbc 8fb6 66bd
00000180: eff6 243d 04f8 e2bc 43dc 493d ee46 99bd
00000190: 514f 89bd 72c9 6cbd 9f31 863b f40e 493d
000001a0: 56e4 acbd 68e7 b73d d701 9ebc 6e21 11be
000001b0: 7ca7 3a3c 0f79 87bd 4223 e6bd 2145 41be
000001c0: 2283 ef3d 5829 06be a57e 86bc 1a8f b63b
000001d0: 2380 c0bc 10f4 3d3d f3eb a33d 2c71 bb3c
000001e0: f36b f13c bab7 cabc 5882 79bc 5f36 763d
000001f0: 59e1 a63c a2ec 03be fade ccbb 4241 5fbc
00000200: 5cf2 53be 79fd d6bc 0fb6 af3c 34e2 edbb
00000210: a37f 083c 6159 5d3d 7b5a ff3c 7c8d 97bd
00000220: 9dcd 07bd e349 bb3d 6e13 b53d 402a 313c
00000230: 6587 4fbb 55e9 9dbc 3506 9abc 081c 603d
00000240: e4c8 87bc db00 6cbd a022 143c 4cb2 983d
00000250: 782d 473d 843f e6ba 767f 433d 5746 cebd
00000260: 46c9 a5bd 85c4 473d d7ab d5bd f04e e03c
00000270: 9e4c 983b bed1 ab3d d780 553d ebb9 bf3c
00000280: bd3a a3bd 418e a53d c92c cbbd 4931 2abb
00000290: 5664 c43d 9718 a0bd 56f7 2e3d de98 ce3d
000002a0: bb91 6ebc 2b8d 0a3a e026 36bc 51af a6bc
000002b0: 9852 b4bc bcbc 7d3d d755 533b 22dc e0bd
000002c0: 7f67 eebc bf8d a13c 0889 cc3c 0d86 413d
000002d0: fd3b b53c 0523 8fbd 7ab9 b13c c11d 8a3d
000002e0: d485 cabd 9d2f 0a3d 0a9c 953d ab02 a43d
000002f0: e5b5 e2bc ff10 12bd 9580 123c 00f2 a1bd
00000300: c7a3 8fbd 46fc 05bc 4f0e 0bbd 416e f93c
00000310: b033 06bd 2e79 36bd 75b9 af3b 60a9 3dbc
00000320: 4750 4cbd cd17 be3c b8ba 4b3d 124d ed3c
00000330: eddd 53bd 2cfb 27bd 4ad0 8fbc 9224 5bbd
00000340: 32c6 443b ef46 91bc 885c 31bd 48a3 883c
00000350: 4388 29bd 21d7 bbbc 3e06 d63c bac7 213d
00000360: 791a 9f3c a4c1 e83d 6bad 9fbd e4be 43bd
00000370: e943 8fbc 71f0 03bd 659f b5bc 510d 203d
00000380: d843 33be 55ff 86bc 5df4 69bd 1eda 2f3b
00000390: b5e4 5d3d f696 a6bd 932b 56bd 8e94 99bd
000003a0: 47f0 d53b 4b5b c3bd 230b c43d d595 01bc
000003b0: f50a aabc 5eff fcbc 4fd8 6b3d 80e1 2f3d
000003c0: d568 d9bd 98ec 3c3d 965f fabb e74c 8d3c
000003d0: 7da0 2a3b 1a30 e23c 9108 6ebc de55 9b3c
000003e0: d764 08bd f248 b23b 8f40 35be 342f c23c
000003f0: 6f24 7b3d 23a2 38bc e3a9 643d 8eb5 b1bc
-0.08347011 0.09419391 -0.13580614 0.038845554 -0.039641123 0.04465188 0.016197283 -0.07750228
0.1284384 0.0475728 0.0437387 -0.19647439 -0.05242069 -0.08671772 -0.16301833 -0.09126442
0.0016317101 0.07308648 0.017495854 0.034116093 0.035290763 0.03495122 -0.020338666 0.049224902
0.020627758 0.07718261 0.12921187 0.07971098 -0.05379912 -0.13291319 -0.0017795345 -0.01605551
-0.06715417 -0.09578098 -0.06443813 0.0012479177 -0.058313202 -0.026699722 0.004925749 -0.059986815
-0.006899831 0.023285156 0.075760566 0.015867937 -0.114876755 0.011671294 0.03510509 0.0826631
-0.0058396435 0.019788252 0.06677576 -0.0649276 -0.15036799 -0.014082499 0.08903153 0.06357235
-0.055610593 -0.008924125 -0.018369803 0.101656154 0.09275644 0.02774582 -0.08697925 -0.06532273
-0.053494573 0.1285481 -0.063181415 0.15861526 -0.08943288 -0.042663027 0.0006701135 -0.071233295
0.079227686 -0.008230366 -0.05659175 -0.0063861064 0.0009130256 0.036699295 0.04497461 0.081020586
-0.06723865 -0.096800104 -0.020401703 0.033966042 -0.005682133 0.04522078 0.0055110846 0.06763954
-0.02674171 -0.033628765 0.02216651 0.03549148 0.020583117 0.020642364 -0.021101993 -0.056326445
0.040274557 -0.027706154 0.049282324 -0.07484232 -0.067045815 -0.0578093 0.0040952708 0.049086526
-0.08441989 0.08979684 -0.019287987 -0.14172909 0.01139247 -0.06614887 -0.11237194 -0.18874027
0.116949335 -0.13101709 -0.01641781 0.0055712583 -0.0234986 0.046375334 0.08003988 0.022881113
0.02947042 -0.02474581 -0.01522883 0.060110446 0.020371126 -0.12883237 -0.006252167 -0.0136263985
-0.20697922 -0.026243912 0.021449117 -0.0072596315 0.008331212 0.054040316 0.031171074 -0.07400033
-0.033155072 0.09144952 0.088415965 0.010813296 -0.0031666395 -0.0192763 -0.018801788 0.054714233
-0.016575284 -0.057618003 0.009041458 0.074558824 0.048627347 -0.0017566537 0.047728978 -0.1007201
-0.080950305 0.0487714 -0.104331665 0.02738139 0.0046478054 0.083896145 0.052124824 0.023404082
-0.07970188 0.080837734 -0.099206515 -0.0025969318 0.0958945 -0.0781719 0.042716347 0.10087751
-0.014561112 0.0005285318 -0.011117667 -0.02034727 -0.02201204 0.06194757 0.003224721 -0.10979487
-0.029102085 0.01972091 0.024967685 0.04724698 0.022123331 -0.06989101 0.021694887 0.06743956
-0.09888807 0.033736814 0.07305153 0.080083214 -0.027674625 -0.03566074 0.008941789 -0.07907486
-0.0701366 -0.008177822 -0.033949193 0.030448081 -0.032764137 -0.04454916 0.0053626844 -0.011576027
-0.049881246 0.023204708 0.049738616 0.028967414 -0.051725317 -0.04101102 -0.017555375 -0.053501673
0.003002536 -0.01773402 -0.043301135 0.016679421 -0.041389715 -0.02292973 0.026126023 0.039497115
0.019421803 0.11365059 -0.07796749 -0.04778947 -0.017488437 -0.032211725 -0.022170732 0.0390752
-0.17506349 -0.016479174 -0.05711781 0.0026832889 0.05417319 -0.08134262 -0.05228765 -0.07499038
0.0065288874 -0.09538897 0.09572437 -0.007909258 -0.020757178 -0.030883487 0.057579335 0.042939663
-0.10615698 0.04612407 -0.0076407893 0.017248584 0.00260356 0.027610827 -0.01452841 0.018961843
-0.033299293 0.0054408247 -0.17700408 0.023704149 0.061314043 -0.011269125 0.05582608 -0.021693017

bias f4 [128]
00000000: c3e5 82bd 4539 a6bc 4387 aabd 1a69 1bbe
00000010: b638 c33b 791c c3bd 8881 93bd 2ec0 f8bb
00000020: ae28 663d 2347 76bd 7023 b0bd 8326 afbd
00000030: eb4c 9abd 3183 b3bd 10e5 ddbc ceff 003d
00000040: 91f4 dabd 9751 d7bd 9fd7 d3bd ed60 a8bc
00000050: 00cc b1bd f5ec df3d 984b 20bd 8f90 11bd
00000060: 3053 b0bc 7b6c 82bd bc64 66bd c965 a7bd
00000070: 0d4a 71bd 0352 d1bd 5061 83be 4eed d23c
00000080: d4dc a73d 3985 cdbc cbee 17be 6176 573c
00000090: daad afbd 236c c3bd 70a7 ed3b a6f7 e5bc
000000a0: 209f 6c3d 25ce 44be 299d a6bd 7caa 1e3a
000000b0: afc3 81bc 929c 02bc 3c1b d43c 5249 01bd
000000c0: 2a1a ffbd cd7c 263d 0cef 4fbd 1478 5ebd
000000d0: 63fb 7fbd c320 68bd 7485 70bd df8d 3cbd
000000e0: 2ef3 b8bd 9af7 8cbd 514e 3dbd a6b2 8abd
000000f0: c417 7dbd 6743 753d d4a5 d1bd 6217 0bbd
00000100: 26e2 b5bd 6473 92bd afde 403d 3df4 edbd
00000110: c42c 14be c1b8 74bd 6045 5e3c 6f4a 8fbd
00000120: e02b 1fbd db95 b6bc f74b 96bd d70c 20bd
00000130: b0f4 f7bd a96c 89bd 4444 23bd 2baf 9fbd
00000140: 6347 d83c a385 e7bc 3efb 3abc cda1 1abe
00000150: 3fe6 16be b4c4 e7bd 0e21 88bd 6b08 58bd
00000160: bdec 8cbd 4d27 99bd 7b82 15bd 2e0a 083d
00000170: 373c 80bd 5a5f 18bd 395e e0bd 6c3e 50bd
00000180: 25eb a5bd dac5 26bc 53a0 00be d045 f9bd
00000190: 30a4 e0bb e05c be3c 00ee 24bd 83ff 94bd
000001a0: b4d6 5cbd 026e b73d 0283 7fbd fafa d7bc
000001b0: 33d4 a2bd cc8f f63a 2a8f 943a 9028 a6bd
000001c0: fdfa 03bd 1779 abbd fe99 bebd 3f2f 9d3c
000001d0: f542 793c 55f0 d2bc fa72 493d 10e4 0dbd
000001e0: b130 3bbe 6fe8 10bd ff3d 3ebd 5fc3 88bd
000001f0: 75eb 8ebd 2434 f3bb 8270 a2bc eb11 63bd
-0.0639148 -0.02029098 -0.083265804 -0.15176812 0.005957688 -0.09526915 -0.072024405 -0.007591269
0.05619114 -0.060126435 -0.08600509 -0.085522674 -0.07534202 -0.08765257 -0.027086765 0.031493954
-0.106911786 -0.10513609 -0.10343861 -0.02055403 -0.08681488 0.10933868 -0.03913459 -0.035538252
-0.021524042 -0.06368347 -0.05624841 -0.08173711 -0.05890851 -0.102207206 -0.2566018 0.025747921
0.081964165 -0.02508794 -0.14837186 0.013150782 -0.085780814 -0.0954211 0.007252626 -0.02807219
0.05776894 -0.19219263 -0.08135445 0.0006052626 -0.01584038 -0.0079719 0.025891893 -0.031564064
-0.12456162 0.040646363 -0.050765082 -0.054313734 -0.0624956 -0.05667187 -0.05872102 -0.046033736
-0.09030758 -0.06883164 -0.046217266 -0.06772356 -0.061790243 0.059878733 -0.10236707 -0.033957846
-0.08881025 -0.07150915 0.047087368 -0.116188504 -0.14470202 -0.059746508 0.013566345 -0.06996619
-0.0388602 -0.022288254 -0.07338708 -0.039074745 -0.12107217 -0.067101784 -0.039860025 -0.077970825
0.026401227 -0.028261965 -0.01141244 -0.15100785 -0.1473627 -0.11316815 -0.0664693 -0.052742403
-0.06881092 -0.07478199 -0.03650139 0.033212833 -0.06261485 -0.03720031 -0.109554715 -0.05084078
-0.08101491 -0.010179007 -0.12561159 -0.12171519 -0.00685551 0.023237646 -0.040266037 -0.072752975
-0.053915694 0.08956529 -0.0623808 -0.026364792 -0.0795063 0.0018811165 0.001133417 -0.081132054
-0.032221783 -0.083727054 -0.093067154 0.019187568 0.015213718 -0.025749365 0.049181916 -0.034641325
-0.18280293 -0.035377916 -0.046445843 -0.06677889 -0.069785036 -0.007421987 -0.019829039 -0.05543701

weight f4 [12, 128]
00000000: f07d 0d3d 1da3 213d c267 69bc 847d 0bbd
00000010: 20e7 cbbc 93e9 c43c 8b4e 963c ca68 3e3d
00000020: a533 b9bc 140c 173d aaf4 51bc 6941 8b3c
00000030: 0b33 e1bc 965a b83c 0fc8 343d 1658 123d
00000040: 6177 78bc b38c b8bc d3a6 843b 5908 7bbd
00000050: 4746 073d c1c0 b73d ff5e fbbb aac7 073c
00000060: f8e7 47bd ecd4 463c 5c2f 513c 8445 d03a
00000070: b347 3e3d b492 8f3a c73a 6cbd 05ac 483c
00000080: 5153 713d c02c 463d 89c2 a3bd fabd 9c3a
00000090: e2bf 74bb b002 ac3c f920 23bd fe91 fe3d
000000a0: 4048 d73b d799 b4bd 71a9 57bd 5a94 15bc
000000b0: bf02 ad38 f115 67bc 2178 5f3c a020 6cbd
000000c0: 3b3e a3bd 31c3 96bc a6ce b93b 520b 833c
000000d0: ce33 95bc ebb2 25bb 1ca2 f93c 26a2 83bd
000000e0: 66ff c3bc 3a5f fe3b 6de0 de3a 0ea5 053c
000000f0: ec96 05bd b83c fcb8 2312 ba3c db9a 203c
00000100: 9c5a 933c 5d4c 443d e11e 23bd d502 293c
00000110: 4a0b 5fbd d835 b03c 660f b53c e98b a1bc
00000120: 5a65 7abd f8b7 f53c 91ce b0bc 7f0b c03b
00000130: 274d ba3c b7c6 d33d 2eb3 f63c 32f0 71bc
00000140: e4db 9d3c 3a4b ebbb f8e8 f53c 1687 11bc
00000150: 8a66 393d 99f8 353d 584d 7739 f21d 22bd
00000160: 2184 9e3c c13c 1d3d d3e6 223d 13d9 aabb
00000170: 3bb1 5fbd 08d2 263c fc89 193c d135 bd3c
00000180: 1510 093c 2678 2a3d 4c65 373d 8091 8dbd
00000190: a31b 253d 40de 12bd c538 f3bc b321 5bbc
000001a0: 9d43 2b3d f648 15bd b5fa 89bd 0d1f d13d
000001b0: 96c2 243c fc93 463d 5e04 de3c 321b 853d
000001c0: a2db a2bc 15dc 9d3c 2cad c3bc e9ea 25bd
000001d0: 3e4f 2f3d 35e7 c63d 1c21 a43d db31 123d
000001e0: 5ab5 62bd 0825 2c3d 6134 9dbd 3284 1c3b
000001f0: fef9 6abc 3ef9 86bc 7ac6 1dbd 7773 3cbd
00000200: 8933 c13b d32e a63b 24ca 6f3d 4ecc 56bd
00000210: 8725 db3a 351f d53d 899c 9bbd 50bd 49bc
00000220: 48d5 64bd 2da4 68bd 7d94 06bc b4cb 0a3d
00000230: a8a0 73bb 72b1 4f3c 276e 263b 8bc0 893b
00000240: 07a0 fc3c 6ecd 363d fca1 92bb 2130 f6bc
00000250: 79c0 c0bc 31a9 7fbd 4a91 71bd 84a7 e5ba
00000260: fa01 2d3c 0ad3 a83c 9c63 3fbc 4afb 3d3a
00000270: 16a6 a83c ecf1 1d3c da2d 443d 6ffc 27bc
00000280: b88e 853c 4736 a43c 064a adbd 4181 84bc
00000290: 6eec c3bc b09b 243b b460 a23c 8b1c a33d
000002a0: 9dc9 a9bc add3 5d3e 6df8 9c3d 791a 86bc
000002b0: a60f 41bd e1b1 a83a 4a3a a1bc f606 88bc
000002c0: 3073 3bbd 6464 413c 261c 723c 8252 d3bc
000002d0: daba a43a e55e 5abc 832f 393d 0af4 633d
000002e0: 5566 3cbd 37c8 553c 574a 22bd 8960 00bc
000002f0: ef09 e0bc 3231 453c 5fd3 d23b 5ef7 43bc
00000300: 262c a2bd 70c2 ab3c cb96 28bd f05b 06bb
00000310: b088 2b3c 687f e2b9 710a cabd 252f 5c3c
00000320: 6259 c1bc 97af 8ebc 959c 36bc f0e1 43ba
00000330: a847 b9ba 2732 653c 6fba 2ebd 52a1 d2bc
00000340: 6d83 293c 4c7f d33d b5b6 d23c da9e 1a3a
00000350: d9a2 5c3d 6791 18bc 8c18 043d 2141 b93c
00000360: 6525 b6bc 5107 deb9 4657 5f3d 7f49 debc
00000370: 14c1 ef3a db4c 7bbc f2c8 b1bc 1a43 303d
00000380: 6e21 4fbc 73fc d83c 8792 cc3c 576e c4bc
00000390: 00a3 c8bc 68dc 573d 0225 733c e942 173d
000003a0: 4961 bf3b 593e cfbd 18ba 443d a59d 12bd
000003b0: 38f9 893c f73e ec3c 2932 abbc 09d9 5c3c
000003c0: 3503 19bd 2e90 563d a4e2 3abc 5f65 7abc
000003d0: 672f c1bc 0cde e23c 37a7 f33c 81ac f63c
000003e0: d4de 41bd 8a65 633d f8e4 f63c cfb0 bd3d
000003f0: 998a 513d 09ef 05bc 2dcf d93c d175 d63a
0.03454393 0.039462198 -0.014245929 -0.034055248 -0.024890482 0.024037158 0.018348 0.046486653
-0.022607634 0.036876753 -0.01281468 0.016998963 -0.02749016 0.022504132 0.044136103 0.035728537
-0.015165181 -0.022528028 0.0040482073 -0.061287258 0.033026006 0.08972312 -0.0076712365 0.00828735
-0.048805207 0.0121357255 0.012767639 0.0015889858 0.046455096 0.0010953755 -0.057673242 0.012248044
0.058917347 0.04838252 -0.07996089 0.0011958473 -0.0037345816 0.020997375 -0.039826367 0.124301895
0.006569892 -0.08818405 -0.052651826 -0.009129608 8.249794e-05 -0.014104352 0.013639481 -0.0576483
-0.07970854 -0.018403621 0.0056703864 0.015996609 -0.018213179 -0.0025283645 0.030472808 -0.06427412
-0.023925494 0.0077628167 0.001700414 0.008157028 -0.032614633 -0.00012027606 0.022713726 0.009802545
0.017987542 0.04792439 -0.03982437 0.010315617 -0.054454125 0.02151005 0.02210207 -0.019720035
-0.061131813 0.02999495 -0.021582874 0.0058607454 0.022741867 0.10340636 0.030114736 -0.01476674
0.019269891 -0.0071805986 0.030018315 -0.008882305 0.045263804 0.044426534 0.00023584568 -0.03957934
0.019350113 0.038388018 0.039770912 -0.0052138655 -0.05461238 0.010181911 0.009371277 0.02309695
0.008365651 0.04161849 0.04477434 -0.069125175 0.04030956 -0.035856485 -0.029690156 -0.013374734
0.041812528 -0.036446534 -0.06737272 0.102110006 0.0100561585 0.048480973 0.027101692 0.06499328
-0.01988012 0.019269982 -0.023886286 -0.04050723 0.04280018 0.09712068 0.080141276 0.035692077
-0.05534873 0.042027503 -0.07676006 0.0023882505 -0.014341829 -0.01647627 -0.03851936 -0.046008553
0.005896036 0.0050715 0.058542386 -0.052440934 0.0016719558 0.10406343 -0.07598216 -0.012313202
-0.055867463 -0.056797195 -0.008214113 0.033885673 -0.0037174616 0.012676584 0.0025395246 0.004203861
0.030838026 0.044629507 -0.0044748764 -0.030052247 -0.023529278 -0.062417213 -0.05897645 -0.0017521237
0.010559553 0.020608444 -0.011681464 0.0007247223 0.020587008 0.009640198 0.04789529 -0.010253056
0.016303405 0.020045413 -0.084613845 -0.016174914 -0.02391645 0.002511721 0.019821502 0.079644285
-0.02072602 0.21662779 0.07664571 -0.016370045 -0.047134064 0.0012870395 -0.019681115 -0.016604882
-0.04576415 0.01180372 0.014777219 -0.025796179 0.0012567893 -0.013328289 0.045211326 0.055652656
-0.04599603 0.013048223 -0.039621677 -0.007835516 -0.027348487 0.012035655 0.006433889 -0.011960832
-0.07918577 0.020966738 -0.041159432 -0.0020501576 0.010469601 -0.00043201004 -0.09865273 0.0134389745
-0.023602191 -0.017417712 -0.0111457305 -0.0007472327 -0.0014135735 0.013989008 -0.042658266 -0.02571169
0.010346276 0.10327014 0.025721887 0.00058983045 0.05386624 -0.00931201 0.032249972 0.022614064
-0.022234628 -0.0004234859 0.05452659 -0.027134655 0.0018291795 -0.015338148 -0.021702264 0.043032743
-0.012642248 0.026487565 0.024972213 -0.023978395 -0.024491787 0.05270043 0.014840366 0.036929045
0.0058404547 -0.10119314 0.048029035 -0.035794873 0.01684247 0.028838618 -0.020897942 0.01347948
-0.037356574 0.052383594 -0.011406574 -0.015282958 -0.023582174 0.02769377 0.02974282 0.030111553
-0.047331646 0.055516757 0.030138478 0.09262239 0.051157568 -0.008174666 0.026588047 0.0016362016

bias f4 [12]
00000000: 083a 823e 13d3 b1bd 14d2 d4bc 7679 53be
00000010: 3231 1ebe 15f7 54bb 82ce 523d 46d8 d13c
00000020: 5dd7 4ebe 4d1e 4fbe 606d c53b 4444 79be
0.254349 -0.08682837 -0.02597908 -0.20651802 -0.15448454 -0.0032495905 0.051466472 0.025615823
-0.20199342 -0.20226403 0.0060250014 -0.24342448
