training/legged_gym/resources/policy/recover_v3_twist.pt (torch, 777150 bytes, 8 tensors)

weight f4 [512, 49]
000000 80 27 ba bd c4 4c df bd e5 01 39 3d 7f bb 4d bc
       -0.09089565 -0.10903314 0.045167822 -0.01255691
000010 95 cb 07 3d ae 74 ce 3c d6 e2 ba bd e9 49 e5 bd
       0.033153135 0.025202122 -0.09125297 -0.11195738
000020 a4 75 60 3e a5 77 06 be 47 3f 1f bd 5b d3 9a 3e
       0.21919876 -0.13131578 -0.038878705 0.30239376
000030 dc dc 21 3e db aa 59 3e bc aa cc be 5d c6 cc bd
       0.15806907 0.21256582 -0.3997401 -0.09998772
000040 a7 32 2b 3e a8 ed fc be 60 92 dc be a3 2f 54 3d
       0.16718541 -0.49400067 -0.43080425 0.051803242
000050 cd 4f b5 3e b3 7e 06 be e7 4e 80 bd 3a 2a 19 3e
       0.35412446 -0.1313427 -0.062650494 0.14957514
000060 a1 12 e1 bd 82 2d 19 3e 05 97 77 bd 8c 54 44 3d
       -0.10989881 0.14958766 -0.060446758 0.047932193
000070 94 e1 c5 bd 3d 53 8e b9 80 11 73 3a f6 a1 12 bd
       -0.09662166 -0.00027146368 0.0009272322 -0.03579899
000080 cc 45 ed 3d b4 b5 a0 bd e1 c4 90 bb 0e 20 03 3e
       0.11585578 -0.07847157 -0.004418001 0.12805197
000090 bc b0 eb bc b0 4a 70 3d 4b be 46 3d 68 2c 00 3e
       -0.028770797 0.058664978 0.04852132 0.1251694
0000a0 f7 0a 01 bb b1 c8 11 3d 7f 98 82 bd 30 66 b1 bc
       -0.0019690373 0.035591785 -0.063767426 -0.021655172
0000b0 53 b7 90 bd 41 6d 9e 3d 5d ba 9b 3d 67 cb a5 bd
       -0.07066216 0.07735682 0.07603905 -0.080954365
0000c0 e5 05 4f 3c a2 b7 46 bd 17 35 67 3d 5f 3f e7 bc
       0.012635683 -0.04851497 0.056447115 -0.02822846
0000d0 7b 9b 53 3e bf f7 83 bd 34 94 5c 3e d7 32 e7 3c
       0.2066478 -0.06443738 0.2154091 0.028222485
0000e0 52 22 06 3f 22 8b 5f 3e f6 2b a6 bd 89 cc 81 3c
       0.5239612 0.21830419 -0.08113854 0.0158446
0000f0 48 e5 86 3e b7 99 84 bd d4 5d 04 be af 4f 39 be
       0.26346803 -0.06474631 -0.12926418 -0.18096803
000100 ef ea 0d be 82 85 68 be 97 ad ec be 9f 89 82 bd
       -0.13859151 -0.22707179 -0.4622619 -0.063739054
000110 6c a9 d4 3d 35 84 98 3e 57 63 7c 3c c5 d0 43 be
       0.10383877 0.29788366 0.015404544 -0.19122608
000120 ca f9 95 3e a0 60 94 3e 71 e6 cc bd cb 76 31 3e
       0.29292136 0.2897997 -0.10004891 0.17330472
000130 f8 c8 5b bd a9 45 4c 3d 6f d0 09 3d 7f d9 7c bd
       -0.053658456 0.04987112 0.033646043 -0.061730858
000140 52 25 bf bc c2 8e c6 3b f3 81 d0 3c 26 0c 93 bd
       -0.023333225 0.0060594985 0.02545259 -0.071800515
000150 7e 89 24 bc 9c 08 f2 bb 95 de a3 3d 34 53 07 bd
       -0.010042546 -0.00738628 0.080014385 -0.033038333
000160 de a7 9f 3d 04 d5 df bd 02 9a 73 3d 9b 05 3c bd
       0.0779569 -0.109293014 0.059473045 -0.045903783
000170 48 5b 0f bd ac 79 8c bd 41 a0 45 bd 49 33 8d 3b
       -0.034999162 -0.068591446 -0.048248533 0.004309092
000180 38 f5 e7 bd 53 20 e5 bd b6 f4 05 3d ff a4 28 3e
       -0.11326069 -0.11187806 0.032704078 0.16469191
000190 b1 17 be bd c7 02 f2 3d 2a 1a 97 bd c4 5c 53 be
       -0.092818625 0.11816936 -0.07378037 -0.20640856
0001a0 af cf a4 3c 81 b9 04 be bf f7 05 3f 5f 5f 0a be
       0.020118563 -0.12961389 0.52331156 -0.13512944
0001b0 6c 97 4c 3e dc aa 1f be 07 f1 c1 3d eb 5a ca bb
       0.19979638 -0.15592521 0.094698004 -0.006175389
0001c0 ca e1 29 be 9a b7 a2 be c6 fe 52 be 23 dd fa be
       -0.16590038 -0.31780702 -0.20605001 -0.4899684
0001d0 05 eb 21 be db 26 65 be 29 50 4b be 0f 0e ec 3b
       -0.15812309 -0.22378103 -0.19854797 0.0072038244
0001e0 b8 76 77 bc c9 82 9f 3e 69 09 58 3e 32 72 58 bd
       -0.015103988 0.3115447 0.2109734 -0.05284328
0001f0 62 a2 2c be 34 89 72 bd bc 3f 4a bb bd 5b f9 bc
       -0.16858819 -0.05921288 -0.0030860743 -0.030439252
000200 64 d1 40 bd 86 8f 4f bd bd 06 60 bc 5c d5 b5 bd
       -0.04707469 -0.050673984 -0.0136734815 -0.08878586
000210 7a 0a 4c bd 58 a4 d3 bc 4a 51 3d 3d d1 f6 53 3d
       -0.04981468 -0.025835201 0.0462201 0.051749054
000220 73 7a ac 3d 62 ea ca 3d 0d 81 c6 3c d0 0c af bd
       0.08421793 0.09907986 0.024231458 -0.08547366
000230 20 76 77 bd 06 5d 7d bd 3b d8 23 bd f1 b2 8a bc
       -0.060415387 -0.061856292 -0.040001135 -0.016931029
000240 e8 52 e3 bd 13 a8 17 bd 30 ce 86 bd d3 43 8f 3d
       -0.110997975 -0.037025522 -0.06582296 0.06995358
000250 26 40 9d 3c b1 03 ac 3c 17 59 1e 3e 08 bb 4c bd
       0.019195627 0.020997854 0.15463673 -0.049983054
000260 02 b6 8c bd b1 04 8d 3d 01 82 d1 be 3e 2a e3 3e
       -0.06870653 0.068856604 -0.40919498 0.44368166
000270 2d c0 40 3d c5 12 9d bd 48 4e 08 bf 74 3b 03 bd
       0.047058273 -0.07669596 -0.5324445 -0.03203912
000280 d0 53 c4 be f7 20 b9 be cd a8 bb be 02 23 69 3e
       -0.38345194 -0.36157963 -0.36652222 0.2276726
000290 30 af 89 bb f5 33 5e bd 65 39 2d be 49 26 8d 3e
       -0.004201792 -0.05424877 -0.16916426 0.27568272
0002a0 8d 50 e9 bd 01 28 3a be f2 06 30 bc db ad bc 3c
       -0.11392317 -0.18179323 -0.010743843 0.02303212
0002b0 85 16 84 bd 58 ef 5d bd ce d5 c4 bd 11 9e 49 3b
       -0.06449608 -0.054183334 -0.096110925 0.003076438
0002c0 c0 2e a2 bd a4 d3 6e bd 93 fe b2 bd c8 49 d7 bd
       -0.07919073 -0.058307305 -0.087399624 -0.105121195
0002d0 5e bd d4 3c fe 22 10 bd c1 17 bd bc 8a 2f 1d 3e
       0.025969204 -0.03518962 -0.023082616 0.15350166
0002e0 18 f7 a5 3d d3 0c 9d bd b5 49 0e bd 4d 6b fe 3d
       0.0810377 -0.07668462 -0.03473826 0.1242281
0002f0 31 4a 4a bd b4 3b 38 3d 4f d6 c9 bd d6 28 d7 bd
       -0.04938716 0.044978812 -0.09855329 -0.10505836
000300 db e7 c0 3d 3f c2 49 3b 81 e0 2b 3e 96 6e 82 bc
       0.09419223 0.0030785946 0.1678486 -0.015921872
000310 62 bd b0 bd 6a 0b dc 3d 5e 2c 17 3d c0 4f 44 3e
       -0.08629872 0.107443646 0.036907546 0.19171047
000320 ce 53 c4 3c 8a 8b 2c be 2e cc 49 be d5 8e 5b bf
       0.023965742 -0.16850105 -0.19706795 -0.8576482
000330 c9 b8 8c bd 3f af a5 3d 21 bb 49 bd 85 81 88 3e
       -0.068711825 0.08090066 -0.049250726 0.26661316
000340 fa e3 b1 3d b3 67 2b be 37 5c af be 52 93 a8 3d
       0.08686061 -0.16738777 -0.34250042 0.08231224
000350 6c 94 df 3e c0 4a 81 be 5c fb 8d 3e 55 75 f8 3d
       0.43667924 -0.25252342 0.27730834 0.12131754
000360 62 93 33 3c bb 7c 27 3e f3 47 29 bd ee e1 8b be
       0.010960432 0.16356175 -0.04132838 -0.27320808
000370 d9 b9 15 be 58 d9 3c be 67 21 4e 3d fa 87 cc bc
       -0.14621677 -0.18442285 0.050324824 -0.024967182
000380 cd 86 c6 3d 1f ef 85 bb f3 35 d8 bd 47 9a 81 3d
       0.0969368 -0.0040873433 -0.10557165 0.06328254
000390 35 db eb bc 53 63 17 3c 30 86 51 3d 70 c4 4c be
       -0.02879105 0.009239989 0.05115336 -0.1999681
0003a0 b8 f2 e8 bc 3e 86 c0 3d 0a e5 b7 bc 89 93 ac bd
       -0.02843605 0.09400605 -0.022448082 -0.084265776
0003b0 37 39 fc bd 5f b5 0e 3e fe ee 25 3d bf 6d b5 bd
       -0.123156 0.13936375 0.040511124 -0.08858823
0003c0 c3 fa ca 3d 99 59 84 bd 1d 62 9d 3d 46 01 32 bd
       0.0991111 -0.06462402 0.07684729 -0.043458246
0003d0 65 2c 53 3d ec d1 ef bd 9a 47 0d be 65 07 d9 3c
       0.05155601 -0.11709961 -0.13796845 0.026492784
0003e0 f7 d5 77 3d 3e 59 bd 3c 4a fc 1b be 17 67 42 be
       0.060506787 0.023113843 -0.1523296 -0.18984638
0003f0 c0 40 a3 bd 0a 29 2d be 83 3f 28 3d f1 7e 11 3e
       -0.079713345 -0.16910186 0.041076194 0.1420858

bias f4 [512]
000000 48 2b b7 3d 08 07 20 bd 54 35 0f 3e 87 7d b0 3d
       0.08943802 -0.039069206 0.13985187 0.086176924
000010 a0 e9 ce 3d 94 0b d4 b8 46 54 d4 3d 3a 9c a0 bc
       0.10103154 -0.00010111104 0.103676364 -0.019605745
000020 07 17 00 be 53 60 58 3e 6e 25 cf 3d ec 8f b5 bd
       -0.12508784 0.21130495 0.10114561 -0.088653415
000030 3b 18 39 be a9 98 23 3d 3b 36 13 be 76 13 c2 3d
       -0.1807565 0.03994051 -0.14376156 0.09476368
000040 0d cc f9 3d d4 23 0a be d4 c8 5f be e9 87 44 bd
       0.12197123 -0.1349023 -0.21853954 -0.047981177
000050 46 47 04 be f5 ff db 3b 6b 1f 59 be 3b ee 78 bd
       -0.12917814 0.006713862 -0.21203391 -0.06077407
000060 98 a7 3d be ce 12 50 3e 3d ef 1f be 7b 58 67 3e
       -0.18520963 0.20319673 -0.15618606 0.22592346
000070 6f ac 10 be 03 5a b0 3c e3 da 6c 3c ec e3 50 be
       -0.14128278 0.021527296 0.014456484 -0.20399445
000080 b9 56 1c 3a ce 6d 71 be a6 49 21 3e 0d 80 9a bd
       0.00059638504 -0.23577043 0.15750751 -0.07543955
000090 58 7a 87 3d 25 c0 26 3e 68 7c 27 bd 76 42 43 be
       0.06615132 0.16284235 -0.040890127 -0.19068322
0000a0 4c b7 00 bd 08 26 e0 bd 79 5a 7b 3d d6 fc 0a 3d
       -0.031424806 -0.10944754 0.06136558 0.03393253
0000b0 3c eb b4 3d a6 8e 86 3e 40 e2 1e be c1 89 8b bd
       0.0883393 0.26280707 -0.15515995 -0.06813384
0000c0 b8 e1 d7 bd 87 f7 81 be 5c b6 88 bc 01 6d 0b be
       -0.10541099 -0.2538416 -0.016688518 -0.136158
0000d0 5e a2 ed bd 82 2e 95 bc 7b e8 24 be 4c 82 b0 bd
       -0.11603235 -0.018210653 -0.1610431 -0.08618602
0000e0 9d 7b 4d bd 7a 0f c7 bd f1 cb f1 3d b7 3a d3 bc
       -0.050166715 -0.09719749 0.11806477 -0.025784833
0000f0 cb 60 c9 bd 25 61 42 bd 94 d5 ac bd 24 1d 6b bd
       -0.09832915 -0.047455925 -0.08439174 -0.057400838
000100 48 da e3 3c 06 e2 48 3c b9 c2 63 be e0 77 c1 bd
       0.027814046 0.012260919 -0.2224225 -0.094466925
000110 5f 3f cb bd 6a eb 16 3c 37 44 58 3d 3a c2 46 3e
       -0.099241965 0.0092114005 0.05279943 0.19410029
000120 3e 35 f5 bd 54 23 37 3e e0 64 35 3e a9 df d4 3d
       -0.11973046 0.1788457 0.17714262 0.10394222
000130 a1 fe 88 3d 99 57 3a bd 19 cb 97 3d 1f 65 72 3e
       0.066891916 -0.045493696 0.07411785 0.23671387
000140 7f 07 06 be 89 1b ba bd cf 6b 34 3e 4d aa 16 3d
       -0.13088797 -0.09087283 0.1761925 0.036783505
000150 60 12 5d 3e a0 1c 2d be 31 d8 06 3e e7 0a dc 3d
       0.21589041 -0.16905451 0.13168408 0.10744267
000160 c4 ed 1f be 35 5b 25 3e 06 7f e3 3d 71 31 28 bd
       -0.15618044 0.16148074 0.11108212 -0.041062776
000170 d2 92 25 be 9d d9 41 be 1d 2e 35 3c 11 cf a6 3d
       -0.16169289 -0.18930669 0.011058358 0.081449635
000180 05 84 12 be dd 44 03 be ec f0 3e be 1c a9 07 be
       -0.14308174 -0.12819238 -0.18646592 -0.13248104
000190 0a ef 12 be b3 8d 53 3e 85 29 cc bd d7 28 3b be
       -0.14348999 0.20659523 -0.09968857 -0.18277298
0001a0 c0 cb 8f bd 8c d0 38 be 0d f3 2b 3e e0 eb 13 3e
       -0.07021284 -0.18048304 0.16791935 0.14445448
0001b0 01 23 4a bd 64 31 e2 3d 9b 05 07 bc 0e e3 50 bd
       -0.04934979 0.11044577 -0.008241083 -0.050997786
0001c0 e6 54 6e 3c 8e 1c 1f be 56 5a e8 bb 1f 2d 42 3e
       0.014546609 -0.15538236 -0.007090847 0.18962525
0001d0 34 38 b4 3d eb 1b ca 3d 1e ec 3a 3e 68 f3 d7 3d
       0.087997824 0.09868606 0.18254134 0.10544473
0001e0 dc 57 1d be 43 19 b7 bd 0a 5c 3b 3d 1a ce b5 bd
       -0.15365547 -0.08940365 0.045742072 -0.088772014
0001f0 55 f7 7d bd a7 62 f3 3d 3a bf 16 3c 41 22 15 3d
       -0.062003452 0.11884051 0.009200865 0.03640962
000200 e8 fe 87 3d b3 9e 69 3d bf 21 4e be 9d c1 0f be
       0.066404164 0.057036113 -0.2013006 -0.14038701
000210 b2 da 1c be 8d 9d b6 bd b2 79 c1 bc 5b fe 18 be
       -0.153178 -0.08916769 -0.0236176 -0.14940779
000220 32 c6 5b be d5 6b cd 3d e5 ae 08 3d 88 5b 1c 3d
       -0.21462324 0.10030333 0.033369917 0.03817323
000230 60 5e 95 3d 79 d4 1a 3e d7 1e 30 be c2 e2 9b 3d
       0.07293391 0.15120114 -0.17199264 0.0761161
000240 7a 00 05 3e e1 6c 3d 3e 09 59 af bd 27 ea 7e bd
       0.12988463 0.18498565 -0.08561904 -0.062235024
000250 da 9b 23 be 83 40 1a bd ef dc 5a be 55 34 a2 ba
       -0.15977421 -0.03765918 -0.21373342 -0.0012375215
000260 1e 55 f8 3d f2 4a 9e 3c ec 0c d0 bd b9 54 67 3d
       0.1212561 0.019322846 -0.10158715 0.056477282
000270 dc a4 18 be 7f 93 af 3d 11 41 cb 3d 2c eb 79 3d
       -0.14906639 0.085730545 0.0992452 0.061015293
000280 8d 41 ab bd bb 19 85 bc a7 84 cb bd d2 a2 f1 bd
       -0.08362112 -0.01624762 -0.09937411 -0.11798634
000290 29 a3 ad bc 20 2d 07 3c 63 66 f0 bd d2 8a 8a 3c
       -0.021195965 0.008250505 -0.11738279 0.016911898
0002a0 d3 1d a5 3d 67 16 95 3d 3f 1a 36 be 6c 7a 4e 3e
       0.08062329 0.072796635 -0.1778345 0.20163888
0002b0 da fb 15 be 36 2c af 3d 9c 80 a9 bd a6 17 37 bc
       -0.14646855 0.085533544 -0.082764834 -0.011175072
0002c0 f8 98 2b 3e 2a 3c 76 bd 04 c7 62 be 79 17 30 bd
       0.16757572 -0.06011597 -0.22146231 -0.042991135
0002d0 6c 8f 33 3e e2 7b 20 3e 45 65 65 3d 93 3e a5 3d
       0.1753518 0.15672258 0.05600478 0.08068576
0002e0 92 37 4a 3b 07 ff a5 3d de c3 20 be b4 77 20 3d
       0.0030855876 0.08105283 -0.15699717 0.039176658
0002f0 58 e1 ad bd f3 1b c7 3d 65 52 3f be e9 f1 3b 3c
       -0.084902465 0.09722128 -0.18683775 0.01147125
000300 ae 9c 36 3e de 9c 87 3d 3d 6d f6 bc 0c 88 ea 3d
       0.17833206 0.06621717 -0.030081386 0.1145173
000310 22 e4 35 bd 60 a4 fe 3d 2e 90 6d bc 41 e3 26 3e
       -0.044407018 0.12433696 -0.014499707 0.16297628
000320 d9 cb f6 bc 5a a1 0d 3d ba 0f f4 3c 21 aa 5d 3e
       -0.030126499 0.034577705 0.029792655 0.2164693
000330 e5 10 1a 3e c3 3e 26 be c8 d3 19 3e ee dc 71 be
       0.15045507 -0.16234879 0.15022194 -0.23619434
000340 81 eb 30 be 84 f5 c5 bd 9d 03 0c be 28 eb 05 3e
       -0.17277338 -0.09665969 -0.13673253 0.13077986
000350 5e 2d 06 3e 3c f4 38 ba b5 7c 1e be 0b c3 eb 3c
       0.13103244 -0.0007055437 -0.1547726 0.028779527
000360 b7 51 58 3e 7e 48 9b 3d ac 8c 49 3e fa 0b 48 3e
       0.21124922 0.07582186 0.19682568 0.19535819
000370 23 02 83 be 70 3f 57 be 9f 46 f2 bd 14 02 14 3e
       -0.25587568 -0.21020293 -0.11829876 0.14453918
000380 f5 7b a5 3c f3 c3 96 bd 71 44 8a 3d 5c 97 8d bd
       0.020200709 -0.07361593 0.067513354 -0.06913635
000390 22 8f f6 bd 44 49 9b bd eb c5 ba 3c 94 18 08 be
       -0.12039019 -0.07582334 0.022799453 -0.13290626
0003a0 dc c6 26 3e bd 2e 11 3e 0a 11 4d be 8f cf 20 be
       0.16286796 0.14177985 -0.20026031 -0.15704177
0003b0 a2 ee 2d 3d d2 f4 44 bd 54 b5 63 be d8 cc a7 3d
       0.042463906 -0.04808504 -0.2223714 0.08193368
0003c0 39 1f f9 3d 8c fb 1f 3e ab 0a 07 3e 56 c0 d0 bd
       0.121641584 0.15623301 0.13187663 -0.10192935
0003d0 9c a2 f7 bd b3 61 18 bd 78 fa df bd b4 72 9e bd
       -0.12091562 -0.03720255 -0.10936445 -0.07736722
0003e0 f0 29 9f bd 5a 93 03 be 0b 01 d8 bd f0 7e 3e 3e
       -0.07771671 -0.12849179 -0.10547074 0.1860311
0003f0 4b 62 71 be 9b 63 fe bd a7 31 9b bd 25 4b 30 3d
       -0.23572652 -0.12421342 -0.0757783 0.043040413

weight f4 [256, 512]
000000 93 ed 15 bb 6a fa e1 bd 38 4f 3e bd 37 ad 7d bd
       -0.00228772 -0.11034091 -0.046462268 -0.06193277
000010 cb e0 06 bd 85 3c 95 bd cb 02 d6 bd d2 dd c7 bd
       -0.032929223 -0.07286934 -0.104497515 -0.09759106
000020 6c 2c c5 bd 0d 7e 06 3d 23 e4 63 bd 9c 9d 2d 3e
       -0.096276134 0.032835055 -0.05563749 0.16954654
000030 29 7f 05 bd d3 f3 2a bd 23 1f bb 3d cd 37 a5 bd
       -0.032591973 -0.041736435 0.09136798 -0.08067284
000040 b7 63 f5 bd 39 9d f5 bd 73 33 03 3d 69 49 c7 3b
       -0.1198191 -0.119928785 0.032031488 0.006081749
000050 ad c5 b2 3d fb 1b 6f bc 50 4a 9d 3d d3 2b 21 3c
       0.0872911 -0.014594073 0.076801896 0.009837109
000060 be 2f 87 bc 59 0d c4 bd 8c 60 8b 39 ca 27 9b bd
       -0.016502257 -0.09572858 0.0002658408 -0.075759485
000070 e5 d2 9c 3d b4 3e ad 3d c6 eb 25 be 5f eb 52 3d
       0.076574124 0.08459225 -0.16203222 0.051494
000080 4f 2b 6a 3d 63 91 02 3d aa 0c b4 bd cd c2 09 bd
       0.05717021 0.031876933 -0.08791478 -0.033633042
000090 ef 84 31 bd f9 fa ab 3c 2b d3 58 bd 12 da 55 bc
       -0.043339666 0.020993697 -0.05293576 -0.01305248
0000a0 e0 f1 19 bd 79 b4 5d 3d e8 a8 94 bd e3 00 e1 bc
       -0.037584186 0.05412719 -0.07258779 -0.027466243
0000b0 ca c7 fa 3d 0b be ef bc 8e a4 70 bd 9c 43 5c 3c
       0.12245138 -0.029265424 -0.05875068 0.013443854
0000c0 e2 fe f9 3c 7d 19 2d bd 05 08 fb 3c 9b 36 e2 3a
       0.030517045 -0.042260636 0.030643472 0.0017258705
0000d0 9c d3 85 bc ed bc 96 bd e8 ce 1e bd 4a a1 4e bd
       -0.016336255 -0.073602535 -0.03877154 -0.050446786
0000e0 2b 21 30 bd 97 a7 b7 bb a7 7c 9c bc 8a 8e 03 3e
       -0.04300038 -0.005604695 -0.019102408 0.12847343
0000f0 a4 ef c1 3d df 29 75 3d 60 cc 42 3d 22 77 5f bd
       0.09469536 0.059854385 0.04755819 -0.054556973
000100 cd 30 3a bb 60 96 96 bd f5 08 2f 3d a6 ef 58 ba
       -0.0028410435 -0.073529005 0.04273315 -0.00082754565
000110 d7 ea 16 3d 9e 6f 48 bc 50 0a 92 3c 5e bc c6 bb
       0.036845054 -0.012233643 0.017827183 -0.0060649356
000120 fd 56 96 3c 1c c2 d7 3d 3d 7c af bd f9 a7 6f 3d
       0.018352026 0.1053507 -0.085686184 0.0585098
000130 1f 21 f6 bc 66 fb e6 3d 01 80 0c bc d0 13 96 bd
       -0.03004509 0.11278419 -0.00857544 -0.07327998
000140 72 ad 68 3c bb 55 4e 3c 6c bd f8 bc 92 96 44 bd
       0.014201509 0.012593682 -0.03036376 -0.047995158
000150 e5 4f 44 bd 9e 7d e9 3c dd db 58 bc 88 bb e0 3a
       -0.047927756 0.028502282 -0.013236013 0.0017145732
000160 ad 29 2e 3d ac df cd bc 43 5b e0 3c 7e 59 b3 bb
       0.042520214 -0.02513107 0.027387267 -0.005473315
000170 86 e4 2c 3d 27 0d f4 bc 06 9a 42 bd f0 ca fb bc
       0.042210124 -0.029791428 -0.04751017 -0.030736417
000180 b8 72 ff 3c 61 59 81 3d 91 11 74 3d ff 18 87 bb
       0.031182632 0.06315876 0.059587065 -0.004122853
000190 8a ad 75 3c 7d ef bc bd ac c8 71 3d c7 fe 87 3c
       0.014994988 -0.09225366 0.059029266 0.01660098
0001a0 35 20 23 3e 54 f6 d7 bd a6 ed 4e bd b5 4b c9 bd
       0.15930255 -0.1054503 -0.050519608 -0.09828893
0001b0 72 ef 72 bd 20 c5 05 bd 05 d7 bc bd 3a f8 7c 3d
       -0.059310384 -0.032658696 -0.09220699 0.061760165
0001c0 5c 48 03 3e 05 8e a2 bd f9 7b 81 bd 23 d6 7f 3d
       0.12820572 -0.07937244 -0.06322474 0.062460076
0001d0 ef e4 ba 3d 3f fe 43 bc 97 a3 73 3a 86 0d 40 bd
       0.09125697 -0.011962472 0.0009294091 -0.046887897
0001e0 22 7d 0c be a7 ff ca 3c 19 70 00 be 6b d9 da 3c
       -0.1371961 0.024780108 -0.12542762 0.026715001
0001f0 2e cc 3a 3d 04 82 a1 3c 3a f4 20 3d 50 38 60 3d
       0.045604877 0.019715317 0.039295413 0.054741204
000200 59 4b f5 bc e1 c4 b5 bd 40 9e ed 3d df 85 37 3d
       -0.029943155 -0.08875442 0.116024494 0.044805404
000210 cf 2d 03 3c 9d de 99 3d 0b 0e 3f bb dd 86 cd bc
       0.008006527 0.07513163 -0.0029152657 -0.025088722
000220 f3 0e 41 3c 97 b1 9b bd 96 96 91 3c 4a a5 a2 bd
       0.011783349 -0.07602232 0.017772 -0.07941683
000230 f2 fa 8e bc f3 65 de bb d0 4c 57 3c 2a bf 1e be
       -0.017453644 -0.0067870556 0.013140872 -0.15502611
000240 3f 80 63 bc f5 9c c8 bd fc 84 a3 bc a5 20 9d bc
       -0.013885557 -0.09795562 -0.019960873 -0.019180605
000250 54 9b 5e 3d 7a 69 3c 3d 76 3e 75 3d 71 41 14 3d
       0.05434735 0.045999028 0.05987402 0.036195222
000260 51 48 f4 3c f0 91 ea bb d5 31 c0 3d 86 ce 37 3d
       0.02981964 -0.0071585104 0.09384505 0.04487469
000270 11 af 74 3d a5 7f b3 bb d3 1b 48 bd ec b6 16 bc
       0.05973727 -0.005477863 -0.04885466 -0.009198885
000280 23 13 d0 bc b8 13 53 bd 25 bd 23 3c 56 c8 fb bc
       -0.02539975 -0.051532477 0.009993826 -0.030735176
000290 27 6f 0b 3d b7 38 10 3c 65 d3 d3 3d 21 d4 25 bd
       0.03404155 0.008802584 0.10343055 -0.040485505
0002a0 48 b6 a5 3d 45 3a fb bb a8 85 e2 bc bf f7 68 bc
       0.08091408 -0.0076668584 -0.027651623 -0.0142192235
0002b0 3f ef e4 3b 20 6c 38 3d dc e9 1d 3e cf eb aa 3d
       0.006986528 0.04502499 0.15421242 0.08345758
0002c0 a1 f6 98 bd 87 7a c6 bc 42 f9 bd 3c 84 d2 92 3d
       -0.07468916 -0.024228347 0.023190144 0.07169059
0002d0 e2 8a ac bd eb c3 58 be 07 f9 f8 bd 23 27 53 bc
       -0.08424927 -0.21168487 -0.12156873 -0.012887749
0002e0 a8 5b 29 bc 7d da 69 3c 62 a3 29 bd f7 9d 93 bd
       -0.010336794 0.014273283 -0.04141558 -0.07207864
0002f0 d6 aa 38 bd 11 ef 2b 3d 74 3b 68 bd 14 d9 26 bd
       -0.045084797 0.04197604 -0.056697324 -0.040734366
000300 22 c6 6d bd 96 22 0c be fc 61 0b 3c b3 26 8e bd
       -0.058050282 -0.13685068 0.008507248 -0.06940975
000310 6d ac a1 3a 34 1c 90 bd 28 3d 21 bc 13 89 b5 bd
       0.0012334712 -0.07036629 -0.009841241 -0.088640355
000320 e2 47 83 bd 54 77 37 bd 48 a5 90 3c b5 87 05 3d
       -0.06410195 -0.044791535 0.017656937 0.032600123
000330 95 16 77 bd 17 b9 b1 3d 9b 4c 53 bd a8 76 6e 3d
       -0.06032427 0.08677881 -0.05158673 0.05821863
000340 5a 12 2b 3d 1f 63 9a bd 06 d4 00 3c ac f0 cf bc
       0.04176555 -0.07538437 0.00786305 -0.025383316
000350 59 60 88 3c 93 df e5 bc c5 89 f8 3d d7 e1 6b 3d
       0.016647505 -0.02806071 0.121356525 0.057588425
000360 4b 13 b5 3d 7c 44 01 bc 45 27 95 bd 72 b4 63 3d
       0.088415705 -0.007889863 -0.07282881 0.055592008
000370 1e 72 ab bc 90 35 61 3d ab c4 c8 3d c2 99 83 bd
       -0.020928439 0.05498272 0.098031364 -0.06425811
000380 d6 b4 77 3d 12 02 d8 3b d7 13 e6 bc b8 f2 29 3d
       0.060475193 0.0065920437 -0.028085632 0.04149124
000390 a3 53 c3 3d 6a 0c a4 bc 14 f0 9d bd f3 db 3b bc
       0.09537437 -0.02002545 -0.07711807 -0.011466014
0003a0 04 d7 f4 39 f3 fa 70 bd 44 c9 c5 bb fe d4 86 3d
       0.00046699506 -0.058833074 -0.0060359556 0.06583594
0003b0 30 29 06 3d 4d 0c ba 3d 86 d4 79 3d 2c e0 8d 3b
       0.032754123 0.090843774 0.060993694 0.004329702
0003c0 47 d8 33 bc 94 cb 4b bb e2 4d 0f bd 86 0a 5b 3d
       -0.0109768575 -0.0031096684 -0.034986384 0.053476833
0003d0 e9 c1 8d 3c dc 5f 05 be 93 ae 66 bd 92 6e aa bd
       0.017304378 -0.13024849 -0.05631883 -0.08321871
0003e0 b8 9b c9 bc fd f2 08 bb 65 0e 14 3d 2a 0e 0f bd
       -0.024610385 -0.0020896785 0.03614654 -0.034925617
0003f0 e4 1e 79 3c 01 ba 76 3c 09 7b 78 3c 25 b3 60 b9
       0.015205119 0.015058995 0.015166053 -0.00021429041

bias f4 [256]
000000 8e 0f cd bd 6d 13 13 be 7f 15 bb bd 7f 35 38 3c
       -0.100127324 -0.14362879 -0.091349594 0.011243223
000010 44 94 28 bd dd a3 18 bd da a1 86 bd d9 a6 b3 bc
       -0.041157022 -0.037265647 -0.065738395 -0.021930145
000020 18 0b cf 3c e4 54 02 bd 62 06 ad bc 10 02 ff bd
       0.025273845 -0.03181924 -0.021121208 -0.12451565
000030 c1 47 4d 3c 5e d2 ce bc 02 c3 45 3d 10 ab aa bd
       0.0125293145 -0.025246795 0.048281677 -0.08333409
000040 e6 c1 05 3d 89 82 a1 39 9a f8 7b ba 83 f3 7e bd
       0.03265562 0.0003080557 -0.00096119347 -0.06224395
000050 49 29 5d 3c 9e c8 c3 3b 44 24 ec 3c 25 4f 03 bd
       0.013498613 0.005974843 0.028825887 -0.0320579
000060 53 fe 85 bd 80 8f f8 bc 8d ea c1 bd 65 b5 f9 bd
       -0.06542649 -0.030341864 -0.09468565 -0.121928014
000070 f8 ba 53 bc ec 3b 4e bd 6e ad fa bc 31 f9 53 bd
       -0.012922995 -0.050350115 -0.030600276 -0.05175132
000080 6b 80 47 bd ed a7 82 3c b6 d3 c4 bd 22 2a d4 bc
       -0.048706453 0.015949214 -0.09610693 -0.025898997
000090 2d 91 4c bd 59 e2 e2 3a 1a 18 73 bc a6 08 e5 bc
       -0.049943138 0.0017309888 -0.014837289 -0.027958225
0000a0 52 3f 0b 3d 4e 89 89 bd 3c f2 51 bd 9a c5 e8 bc
       0.033995934 -0.06715642 -0.051256403 -0.028414536
0000b0 63 f8 13 bd 8f b5 0c bd 7f 8b df bd 00 d4 4e 3c
       -0.036125552 -0.034352835 -0.10915279 0.012623787
0000c0 e6 6d f9 bd f3 0c 46 3c b0 8e 43 bd a4 5a 01 3c
       -0.121791646 0.012088048 -0.0477435 0.007895146
0000d0 17 47 bd bc d7 94 54 bd 67 91 37 bd 78 a5 74 bc
       -0.023105187 -0.051899757 -0.0448164 -0.014932029
0000e0 ec b8 9a ba 7b 30 c3 ba dc d2 b0 bd 6c 6f ab bd
       -0.0011804379 -0.0014891768 -0.08633968 -0.083708614
0000f0 df ad b8 bd db 97 5b bd d2 3f af 3a 5d 00 6d bd
       -0.09017538 -0.053611618 0.001337046 -0.057861675
000100 55 8c 9d bc 7f be 40 bd c2 b9 f0 bc 10 65 e6 bd
       -0.019231955 -0.04705667 -0.029385451 -0.11249745
000110 cd 26 ca 3c 4c 01 c2 bd 6c 5d 43 3c 09 dc 45 bd
       0.024676705 -0.094729036 0.011924129 -0.048305545
000120 47 c4 8d bc 9a 3f 81 3c 8e e7 04 bd 50 aa 9d 3c
       -0.017305506 0.015777398 -0.03244739 0.01924625
000130 58 8c 74 bd 67 78 36 bc 03 41 98 bd 5e 78 96 bd
       -0.059704155 -0.011137105 -0.07434275 -0.07347177
000140 8d 2a 0d be e9 93 f0 3b dc c8 d6 bc 9f ed 18 bd
       -0.13785763 0.007341851 -0.026218824 -0.037335988
000150 f0 a4 b3 bd 58 4b 1b bd c0 f4 17 bd 6a d8 cc bd
       -0.08771694 -0.03791365 -0.037098646 -0.10002215
000160 08 24 ac bc a0 09 0c be 4d 49 52 bc 1a 91 5c bd
       -0.021013275 -0.13675547 -0.012834859 -0.053849317
000170 a8 72 2a bd d0 f2 dd bd bd 2a aa 3b ec 4d b4 bd
       -0.04161325 -0.108373284 0.005193083 -0.08803925
000180 c5 ae 1d bd b2 d6 bd bd 99 63 a0 bd 4f 8d 00 3d
       -0.03849675 -0.092694655 -0.07831497 0.031384762
000190 87 9b c6 bd 4b 96 b3 bb ab 83 34 bd 33 60 5e bb
       -0.09697633 -0.005480563 -0.04407088 -0.003393185
0001a0 b4 b6 00 bd 06 d5 82 bd 02 fa 91 ba 5f 89 36 bc
       -0.03142424 -0.06388287 -0.001113713 -0.01114115
0001b0 93 59 22 bd e2 97 ff ba d7 b7 93 bd d5 2b df bd
       -0.039636206 -0.0019500221 -0.07212799 -0.10897032
0001c0 be 83 31 bd 2e d0 31 bd 98 01 16 bd 31 a9 45 bc
       -0.04333853 -0.043411426 -0.036622614 -0.012064264
0001d0 18 0f e5 bd 84 70 fb bd b1 07 a6 bb f2 a9 f0 bd
       -0.111845195 -0.1227732 -0.005066835 -0.117511645
0001e0 f6 5f 1c bc 0a f2 11 be 32 4a e8 3b 9b 95 28 3a
       -0.009544363 -0.14252487 0.007088923 0.00064309844
0001f0 33 bb 18 3d 9e 20 19 bd b2 9f 39 bd 8d 58 c0 bd
       0.037287902 -0.03738462 -0.045318313 -0.0939189
000200 fc 1c c5 bd 9f 68 9e bd 84 6c 15 be 25 d1 0d bc
       -0.09624669 -0.07734799 -0.14592177 -0.008655821
000210 fe 28 9e bd 13 b7 85 3c e7 cb 4b bc 55 8e 4f bd
       -0.077226624 0.016322648 -0.012438751 -0.050672848
000220 ab bf a2 bd e1 e2 f4 bc c6 95 32 bd 0a f2 89 bd
       -0.07946714 -0.02989334 -0.043599866 -0.067356184
000230 6e 68 6e bc 49 2b d5 bd c1 92 64 3c a6 73 64 bd
       -0.014551265 -0.104086466 0.0139510045 -0.055774353
000240 cc b9 04 be 6a da 76 bd c7 f0 f8 bc c3 2c 99 bd
       -0.12961501 -0.06026689 -0.03038825 -0.07479241
000250 f7 4e 06 3c 70 0f 7f bd 5e ef 10 be 27 2c ae bd
       0.008197538 -0.06227058 -0.14153811 -0.08504515
000260 04 cc 89 bd fb a8 da 3b 94 04 1e 3d 8c 7d 40 3c
       -0.06728366 0.006672976 0.038578585 0.011748683
000270 ea 9c b3 bc 26 8e 7d bc 26 e0 d6 bd 1c 0b 7c bd
       -0.021925408 -0.015475785 -0.10491972 -0.061534032
000280 cd 34 d4 bd be 15 e8 bd 7f 69 53 bd 40 cd 1a bd
       -0.103616334 -0.11332272 -0.05161428 -0.037793398
000290 a0 7f b0 bd 75 70 09 bd 7d ba a7 bc 31 a6 1d be
       -0.086180925 -0.033554513 -0.020474667 -0.15395428
0002a0 b4 14 3b 3c 7f 96 0a bd 8d a4 c1 bd 4b 00 06 bd
       0.01141851 -0.03383493 -0.09455214 -0.032715123
0002b0 15 1b 9f bb 33 05 c7 bc 76 97 4a bd 15 16 67 bd
       -0.0048555234 -0.024294471 -0.04946085 -0.056417543
0002c0 37 d1 ba bd 1a 1a 56 bd 55 3b 49 bd 3b d9 82 bc
       -0.09121936 -0.052270986 -0.04912885 -0.015972724
0002d0 1f 8d 15 bd 16 0c 18 bd 67 de 8d bd 95 c9 3c bd
       -0.036511537 -0.0371209 -0.069271855 -0.04609068
0002e0 32 ce 5b bd 67 f3 b1 bd cf 1a 8f bc 61 c9 58 bd
       -0.05366344 -0.086890034 -0.017468838 -0.052926425
0002f0 35 66 c0 bb b5 10 cc bd 6f f5 4b bd dc c6 19 bd
       -0.005871559 -0.09964124 -0.04979461 -0.037543163
000300 d7 47 d5 bd 35 c3 9b bd b4 75 ce bd 6c 93 0c be
       -0.10414093 -0.07605592 -0.10081044 -0.13728112
000310 df fb 62 bd 53 05 ae bd 29 88 ad bc 06 7e 16 be
       -0.055415984 -0.08497109 -0.02118309 -0.14696512
000320 30 08 0c bc da 4b de bc 8d 11 42 bd 42 e7 20 be
       -0.008546874 -0.027135778 -0.04738002 -0.15713218
000330 ae 3d 82 bc 0c c9 b7 bd 2c b7 e1 bd 43 71 02 be
       -0.015898552 -0.089738935 -0.110212654 -0.12738518
000340 0d 46 7c bd 67 30 e2 bd 51 86 86 bd 70 7b 0d 3d
       -0.061590243 -0.11044388 -0.065685876 0.034541547
000350 10 16 10 bd 24 69 b4 bd f1 85 6d bd 62 0f e7 bd
       -0.03517729 -0.088091165 -0.057989065 -0.11282231
000360 78 52 cd 3c 22 5b 80 bd fa 8d 1b bd e7 9f a3 bd
       0.025063738 -0.06267382 -0.037977196 -0.07989483
000370 ad 37 ff bd 7d 6e 90 3c 44 f2 bd bd 6e 6c be bd
       -0.12461791 0.01763081 -0.09274724 -0.09298025
000380 a7 25 19 bd 25 0f c3 bd 64 e0 b3 3c 4a 44 91 bd
       -0.037389424 -0.09524373 0.021957584 -0.07093103
000390 8a f8 27 bc 67 d3 79 bd c2 d5 cd bd a5 2d 0e be
       -0.010252127 -0.060992625 -0.10050537 -0.138846
0003a0 43 e4 69 bd 5c 16 13 3d 39 86 43 bd f2 49 c9 bd
       -0.057102453 0.035909995 -0.047735427 -0.09828557
0003b0 1d 3a 82 bb c9 e0 0e be 6f 4f 9d 3c fd 80 12 be
       -0.003974213 -0.13952936 0.019202916 -0.14307018
0003c0 e7 36 36 bd 8a 95 9e bd 1e 15 0b bd 35 83 05 be
       -0.044485953 -0.07743366 -0.033955686 -0.13038333
0003d0 de 25 f8 3c a7 3e 04 bd a1 89 17 bd 23 d8 ac bd
       0.030291494 -0.032286312 -0.036996488 -0.08439662
0003e0 c3 03 06 bd 00 56 59 bd 07 54 cb bc b7 f0 71 bd
       -0.03271843 -0.05306053 -0.02482034 -0.059067454
0003f0 b4 df e9 bc 5b 5a 9b bd 90 15 14 be a1 21 10 bd
       -0.028549053 -0.07585593 -0.1446135 -0.03518832

weight f4 [128, 256]
000000 41 71 0c bc 58 48 f5 3d a9 da e9 bc 21 b8 fd 3d
       -0.008571924 0.11976689 -0.028546648 0.123886354
000010 5e dc 00 3e 0f 4f be 3c 08 5d a7 3d 2e aa 80 bd
       0.12584063 0.023231057 0.08172041 -0.06282459
000020 c6 c4 93 3d 35 c3 5c 3b 55 ea 0a 3c 9a 48 48 3d
       0.07215266 0.0033685688 0.008478721 0.048897363
000030 53 96 00 bd 08 14 c4 bc f1 25 f3 3b ab 91 b6 3c
       -0.03139336 -0.023935333 0.0074202945 0.022286257
000040 d1 df c1 bc 07 a6 92 3b 4b 1a cf 3d ed 75 a5 3d
       -0.023666294 0.0044753584 0.10112437 0.08079133
000050 fd 1c 7b bd 86 d7 82 bc 67 85 00 be fd 66 1b bd
       -0.061306942 -0.01597191 -0.12550889 -0.037940014
000060 5f ec 12 3d b6 7b 3c 3d 68 59 8e 3d 7c be 09 bd
       0.035869952 0.046016417 0.06950647 -0.033628926
000070 63 6d 33 bd b0 98 90 bd 42 12 51 bc ac a5 74 bb
       -0.04380549 -0.07060373 -0.012760701 -0.0037330193
000080 aa a2 0e bb 6e 41 02 bd 60 e3 dd 3b 3e ac 80 bd
       -0.0021764436 -0.03180068 0.00677149 -0.062828526
000090 db ac 4a bd af 9d ce bc c7 ee d1 bc 54 3c ae 39
       -0.049481254 -0.025221674 -0.025626553 0.00033232814
0000a0 7c 5e 6a 3d cd 37 87 3c 13 bc c8 3c 18 2a 12 bd
       0.057219014 0.0165061 0.024503743 -0.035684675
0000b0 f5 32 da 3c 71 30 97 3d 59 77 00 3d b0 f0 3d 3c
       0.026635626 0.07382286 0.03136382 0.011593029
0000c0 6b 59 48 3d b1 3c 37 bd df 99 04 bc 0c 2c b6 bd
       0.0489134 -0.044735614 -0.008093326 -0.0889512
0000d0 21 0b 56 bd b8 62 83 3d cb 14 9b 3c 66 09 a7 3d
       -0.052256707 0.064153135 0.018930813 0.081560895
0000e0 c8 f2 ac 3d f5 2f aa 3c 6e 80 b4 bc b1 9a 44 3a
       0.08444744 0.02077482 -0.022033896 0.00074998575
0000f0 ab a9 e6 3c 0f 03 80 3d 11 8d 88 bd 80 be c8 bb
       0.028157076 0.062505834 -0.06667531 -0.006126225
000100 04 29 af bc 92 4d 5c 3d 7c 12 a1 bd c8 1a 45 3d
       -0.021381862 0.053784914 -0.07864854 0.048121244
000110 56 cb 30 3c f5 42 8b 3b 36 33 07 bc 85 aa af bb
       0.010790667 0.0042499253 -0.008251956 -0.0053609037
000120 3d 8c 09 bd 83 c0 9b 3c 80 40 f7 3d a5 87 ac bd
       -0.033581007 0.019012695 0.12072849 -0.0842431
000130 d4 07 55 3d 00 4f 81 3d 3a 26 94 3d 58 ea 27 3d
       0.05200942 0.06313896 0.07233854 0.040994972
000140 43 ee 19 3d f8 29 cf bc 57 e3 de bc 9e d4 82 3c
       0.03758074 -0.025288567 -0.027208013 0.015970524
000150 b6 9a 01 3e c9 22 03 bc e0 9d 67 bd 55 3c 9e 3c
       0.12656674 -0.008003899 -0.056547046 0.019315878
000160 08 ff 62 3d 73 22 b0 bb b7 d9 f8 3d eb 05 ff 3c
       0.055418998 -0.0053752004 0.12150901 0.031130752
000170 1d bb d5 3c b5 35 95 3c aa d2 4f bd 6f 8e 39 bd
       0.0260902 0.018214086 -0.050738014 -0.04530185
000180 2f 14 ae bc a9 9c 49 3d cf e3 ab bb 73 7b 73 bd
       -0.021249859 0.04922167 -0.0052456628 -0.059443902
000190 72 08 9a bc 1c 57 b4 3d f2 8c 3f 3c 44 22 76 3d
       -0.018802855 0.08805677 0.011691319 0.060091272
0001a0 5f 40 4d bd 98 a0 cc b9 90 25 7c bd 7c ee a2 bc
       -0.050110217 -0.00039029564 -0.06155926 -0.019889109
0001b0 dc 79 88 3b 2d 86 c4 bd 85 36 f0 bd 26 e2 4f 3c
       0.0041649174 -0.095959045 -0.11729149 0.012688195
0001c0 44 ba cd 3b 13 52 48 bd 44 58 e6 bc a3 df 23 bd
       0.006278308 -0.048906397 -0.02811826 -0.0400082
0001d0 41 c3 12 3d 3c c4 34 3d d6 77 ea 3d 9e a7 10 3b
       0.03583074 0.044132456 0.11448638 0.0022072564
0001e0 95 70 bc 3c 43 80 2d 3d bc b8 5f bd 91 cb 73 3d
       0.023002902 0.042358648 -0.054619536 0.059520308
0001f0 59 10 67 3d cd 74 da 3c a3 5a 44 3c d9 f2 60 3d
       0.056412075 0.026667023 0.0119845 0.054919098
000200 73 d0 e5 3c c8 16 8b bc 8c 13 08 bd 5e f7 90 bc
       0.028053498 -0.016978636 -0.033221766 -0.017696079
000210 38 97 87 3d f5 d1 d4 bb 56 7f 16 3d 51 90 c4 bc
       0.066206396 -0.0064947554 0.03674253 -0.023994597
000220 eb 06 c5 3c 33 2f fb 3c df 4a 85 3d d3 9b c4 bc
       0.02405115 0.030662155 0.06508421 -0.024000084
000230 3a d6 47 3d ba 0d 94 3d 94 5b 28 3b 48 07 98 3d
       0.048788287 0.07229181 0.002568935 0.07423264
000240 0f b2 a1 3c e4 b8 55 3c fc a3 8c bc ac 6b 97 3d
       0.019738225 0.01304457 -0.017168038 0.07393584
000250 fe ba 24 bd 91 06 ab bd 0c 2c 9b 3d cf 98 b7 bd
       -0.040217392 -0.08350862 0.07576761 -0.08964693
000260 49 d1 99 3d e1 41 12 3d 52 fd 28 bd bc 8e 01 3d
       0.07510621 0.03570736 -0.04125721 0.031630263
000270 f2 a8 ae 3b d1 69 fd bc 3c 3f 04 3d e1 d9 13 3e
       0.0053301984 -0.030934246 0.032286867 0.14438583
000280 09 d8 87 3c b8 76 8d 3d 5d 7f 42 bc 03 1d 27 bc
       0.016582506 0.069074094 -0.011871186 -0.010199788
000290 0b 8d 45 3d 6b 44 6a bd bc 52 ec 3d 94 23 79 3c
       0.048230212 -0.057194155 0.11539218 0.015206236
0002a0 68 39 13 3d e4 6c 95 bc 8f 65 bf 3d 23 6b 84 bd
       0.03594342 -0.0182404 0.09345543 -0.06465747
0002b0 37 22 11 bc 4a 11 3c 3d f8 6c 8a 3c b2 66 e1 bc
       -0.008858255 0.045914926 0.016897663 -0.02751479
0002c0 12 12 89 bd 45 f9 ed 3c 7f 62 30 bd 6c 4d 98 3c
       -0.066929 0.029049525 -0.043062683 0.018591605
0002d0 9b 0b 0d 3a d6 60 ef 3c d5 77 2d bd 8f 4f 60 3d
       0.00053804525 0.02922098 -0.04235061 0.054763373
0002e0 40 67 91 bc 07 bc 5c 3d 8a d8 ed 3d 25 09 72 bd
       -0.017749429 0.053890254 0.11613567 -0.059090752
0002f0 a7 d8 40 bc bc e0 a1 bd b2 b3 5d 39 eb 82 13 3c
       -0.011770404 -0.07904193 0.00021143144 0.009003381
000300 35 e3 18 3c 0f 7f c7 3d ab b2 da 3d e6 29 06 3d
       0.009331514 0.097410314 0.106786095 0.0327548
000310 73 26 0f bc 67 16 8f 3d 9d 75 56 3d 49 1c 8b 3d
       -0.008737194 0.06986695 0.05235826 0.06792504
000320 29 94 ee bd 3b dc 43 3d 52 a7 03 3e 87 91 ab 3d
       -0.11649353 0.04781745 0.12856796 0.083773665
000330 76 eb 42 3d 1b 94 c4 bc 91 cf c9 bd 29 75 97 bd
       0.047587834 -0.023996403 -0.09854043 -0.073953934
000340 5c 57 c3 3c e0 ed 8d 3c bb 90 ea bc 53 6f 3b 3d
       0.023845367 0.017325342 -0.028633466 0.045760464
000350 e8 db 46 3c bc 3b 75 bc bd 6a 52 3d 04 a0 9f 3d
       0.012137391 -0.014967855 0.051371325 0.077941924
000360 9a 0a d1 bc ca ac 0d bc d9 e6 7b bd 13 10 0b 3d
       -0.02551775 -0.008647153 -0.06149945 0.033950876
000370 57 b6 82 3d a1 c0 8b bd 46 8a 7a 3d 62 39 61 3d
       0.06382435 -0.068238504 0.061167024 0.054986365
000380 20 d0 c5 bd 4c 55 68 bd c3 8f f3 3b 04 5c 9e 3d
       -0.09658837 -0.05672197 0.007432909 0.07732394
000390 52 bd 95 bc 8f f5 f3 bc 23 9c 78 bc 95 0a e7 3c
       -0.018278752 -0.029780177 -0.015173945 0.028203288
0003a0 dd 2f 2e 3d cc 12 cd bd 50 dd 9d bd 30 dd 23 3d
       0.042526115 -0.10013351 -0.07708228 0.040005863
0003b0 59 17 ff 3c da e5 23 3d 97 80 59 3d a4 48 e1 3d
       0.031139063 0.040014125 0.05310115 0.11000183
0003c0 07 79 48 3a 73 b1 eb 3b 7d 39 14 3d 12 1d 39 3b
       0.0007647429 0.0071927845 0.036187638 0.0028246087
0003d0 7d a4 3e bd 90 80 12 bd a3 98 27 bd 09 bc 58 3d
       -0.046543587 -0.035767138 -0.04091705 0.0529137
0003e0 ec 6e 30 3c af 5b 09 3a 45 e4 0c bd 52 c5 5b bb
       0.010768633 0.0005239797 -0.034397382 -0.003353436
0003f0 41 dd 09 3e 7b ce 45 bd d7 96 0f bd c2 95 79 bc
       0.13463308 -0.04829262 -0.03505596 -0.015233459

bias f4 [128]
000000 2b b7 a6 bd 19 40 98 3d f8 b8 bd bd 67 89 e5 bd
       -0.08140405 0.07434101 -0.092637956 -0.11207848
000010 d7 0c 38 bc cf 3c f4 3c a8 77 ab bd 9e 93 c4 bc
       -0.01123353 0.029814152 -0.08372432 -0.02399617
000020 25 4b 09 3d 3f 95 06 bd 85 ca 8a bd f0 76 f7 bc
       0.03351893 -0.032857176 -0.06776909 -0.030208081
000030 b1 5a cd bd 73 3f 5d bc c4 3f e5 bd 37 ef c2 3c
       -0.10027064 -0.013503897 -0.11193803 0.023795707
000040 3a b9 4e bd d9 a8 c1 bc 7c e5 e1 bd c0 da 8b 3b
       -0.050469615 -0.023640083 -0.11030099 0.0042680204
000050 26 93 be bd 40 d9 c1 3d 80 79 ee bb ed de 87 bc
       -0.0930541 0.09465265 -0.0072776675 -0.016585791
000060 b0 70 0e 3c 94 cf a5 bd 01 d3 e2 bd 02 c3 19 bd
       0.008693859 -0.08096233 -0.11075402 -0.03753949
000070 06 ff d1 bd fa 7b 91 bd 44 fe 41 be 8e e6 28 3d
       -0.1025372 -0.07103725 -0.18944651 0.0412355
000080 1e 49 94 3d f3 0a e5 bb 34 43 f4 bd fd ec 4e 3d
       0.072405085 -0.0069898306 -0.119268805 0.05051898
000090 56 61 d5 bd 62 9d 81 bc c7 35 86 3c b1 e2 03 3d
       -0.10418956 -0.015822116 0.016383065 0.03219861
0000a0 9c 84 a0 3d dd da d6 bd 67 ae ca bd de a0 cb 3b
       0.07837793 -0.104909636 -0.09896546 0.006214245
0000b0 da 9b 4a bd 50 49 db bb a7 bc a5 3c 0f 39 85 3d
       -0.049465038 -0.006692089 0.020231558 0.06505024
0000c0 d1 a9 e5 bd fd c7 a8 bc 35 d4 a1 bd 3b 28 5c bd
       -0.112140305 -0.020603174 -0.079018034 -0.053749304
0000d0 06 39 35 bd 2d 89 60 bd 3e db 5c bd 0c b5 13 bd
       -0.044243835 -0.05481832 -0.053920023 -0.03606133
0000e0 a1 13 15 be 64 ac 9a bc 5f b2 b0 bc 90 53 a3 bd
       -0.14558269 -0.01888103 -0.021569429 -0.07974923
0000f0 1f 0f 77 bd f9 03 25 3d cb dc 77 bd c1 3d 12 3d
       -0.060317155 0.04028699 -0.0605133 0.035703424
000100 37 e7 1e bd d6 04 ac bd d5 ca 57 3d c5 06 a6 bd
       -0.038794722 -0.0839936 0.05268367 -0.0810676
000110 0b 8b 27 be fc 09 82 bd 0f 8c e9 3b 9c 1b 5d bd
       -0.16361634 -0.063495606 0.007127292 -0.05398141
000120 d3 c1 6b bc 0f cc a5 bd a7 7a a9 bd bb 11 03 bd
       -0.014389473 -0.08095562 -0.08275347 -0.03199933
000130 65 33 c5 bd 69 71 a3 bc ba 72 53 3c 5a f6 8a bd
       -0.09628943 -0.01995154 0.012905771 -0.06785269
000140 bd c6 60 bc 1e 1b a7 3c d0 00 22 bd a3 bc c6 bd
       -0.013719258 0.020398673 -0.039551556 -0.09703948
000150 0d 53 15 be 1b 83 25 bd a2 b8 52 bd 36 c0 60 bd
       -0.14582463 -0.040408235 -0.05144561 -0.054870807
000160 a0 75 be bb 87 c8 ef bd ca 62 76 b9 1d 6d 8a 3d
       -0.005812362 -0.117081694 -0.0002349719 0.06759093
000170 17 47 ee bc 15 b2 4e bb 66 4f 74 bd 05 53 11 bc
       -0.029086633 -0.003153925 -0.059646033 -0.008869891
000180 ef f6 81 bd bb ec 9e 3b 82 ac 8d bd d7 f3 b9 bd
       -0.06345927 0.004849998 -0.06917669 -0.09079712
000190 b7 1a f3 3b 8f 87 bd bb 8a 0a 96 bd 7e 55 9e bd
       0.007418956 -0.005783982 -0.07326229 -0.0773115
0001a0 08 ca b9 bd a7 ae 77 3d 34 ce 79 bd 13 48 e7 bc
       -0.090717375 0.060469296 -0.060987666 -0.02823261
0001b0 89 52 84 bd 11 b0 fb 3c b8 e1 05 3c df 6a b6 bc
       -0.06461055 0.030723603 0.008171491 -0.022267757
0001c0 bf ee 09 bd 94 1c f3 bd f5 30 54 bd 6e db 72 3d
       -0.03367495 -0.11870685 -0.0518045 0.059291296
0001d0 3e 0c 8d 3c 9a d4 4b bd d5 46 af 3b 95 bf 65 3c
       0.017217752 -0.0497633 0.00534902 0.0140227275
0001e0 31 c7 da bd ff fe af 3c be 98 e7 bd eb 03 73 bc
       -0.10682524 0.021483896 -0.1130843 -0.014832477
0001f0 3a ca 95 bd fe a9 46 3b 76 02 14 bd f0 01 ac bd
       -0.07313962 0.0030313726 -0.03613516 -0.08398807

weight f4 [12, 128]
000000 8b bd b4 bc f1 d7 9f 3c 47 01 00 bd df 42 0f 3d
       -0.022063037 0.019512149 -0.03125122 0.034975883
000010 66 30 e2 bc 4d a0 dc bc 68 ac 88 bd eb bc 78 bb
       -0.027610969 -0.026931906 -0.06673509 -0.00379544
000020 30 9e 7e bc 53 9c 4c 3d b5 c2 1a 3d a8 35 18 3b
       -0.0155406445 0.04995377 0.037783343 0.002322534
000030 8c 7e 87 bc b9 48 a0 3c dd 86 e6 3d 55 bc 5e 3d
       -0.016539834 0.019565927 0.11256192 0.054378826
000040 02 d3 bc bc 05 05 89 bb 9a 45 fd 3b f3 a6 e3 bc
       -0.023049835 -0.0041815066 0.0077292444 -0.027789569
000050 74 74 af bc ac 87 e6 3c 0c f9 20 3c 28 d6 65 bc
       -0.021417834 0.028140865 0.009825002 -0.01402811
000060 3c 91 46 bb 78 c9 12 ba af 30 66 bd 34 e3 8d bd
       -0.0030298969 -0.0005599479 -0.056198772 -0.06928101
000070 1c fa 0e 3d ac ea 38 3c 15 28 a8 bd 35 15 b9 3b
       0.03490649 0.011286419 -0.0821077 0.00564828
000080 0f 77 d1 3d 7e c9 31 bd f2 81 66 bc fb a6 9f bc
       0.10227787 -0.04340505 -0.014069067 -0.019488802
000090 fb 36 62 3d cf 6e 02 ba 9b ad 0c 3d 6d 98 03 3d
       0.055228215 -0.0004975618 0.03434525 0.032127786
0000a0 cb d9 e7 3b ce 2f 1a be 87 39 2b bd fb 2b 1e bd
       0.0070755235 -0.15057299 -0.04180291 -0.03861616
0000b0 ac 5e a8 3b f4 58 34 3d b0 35 9f 3d fc c4 9b 3c
       0.005138239 0.044030145 0.07773912 0.019014828
0000c0 ef af 98 bd e9 94 28 3c de c3 46 3d 7f bf 28 bd
       -0.07455432 0.010289409 0.048526637 -0.04119825
0000d0 b9 42 0b 3c ba d2 2e 3d 24 b1 93 bc 85 06 09 3b
       0.008499795 0.042681433 -0.018028803 0.0020908427
0000e0 5c a7 3d 3d c8 86 a7 bc 62 d5 1e bd 19 ed 90 3c
       0.046302184 -0.02045001 -0.038777716 0.017691182
0000f0 4d c3 5e 3d f3 60 aa 3d 1b 60 78 bd ee 7f a0 bb
       0.054385472 0.08319273 -0.06063853 -0.004898063
000100 1b b9 aa bc 7a 25 ae 3d 28 78 1b bc df f6 76 3b
       -0.020840218 0.08503242 -0.009489097 0.0037683768
000110 1f fa 10 bd bf b7 2d bd 82 60 1c 3d ec 8c 29 bd
       -0.035394784 -0.042411562 0.038177975 -0.04139416
000120 d7 77 9e bb 1e e1 a4 3c 1c fc eb bb 85 a8 3e bc
       -0.0048360634 0.020126875 -0.0072016846 -0.011636858
000130 d6 c6 b1 3c cd 9c 85 3d bb e7 1a 3d 8a ec 30 bc
       0.021701258 0.06524048 0.03781865 -0.010798583
000140 0e c0 b2 bc 21 a7 87 3b 3f 06 c2 bb b8 73 b8 3b
       -0.021820094 0.0041397964 -0.0059211547 0.005629029
000150 67 bb b5 3d 92 ac c7 bc 10 1b 4d bc f8 ce ff bb
       0.08873635 -0.02437428 -0.012518659 -0.007806655
000160 08 f7 43 3b e1 39 af bc e1 87 02 bd ed 29 4f 3d
       0.002990188 -0.021389904 -0.031867865 0.050577093
000170 b4 51 76 bd 45 d2 c9 3c e8 bf 1e bc 7a c6 12 3c
       -0.060136512 0.024636397 -0.009689309 0.008958453
000180 3a cd 3c bd 18 8d 6a 3c a9 e2 b6 3b fa 2e 61 bd
       -0.046094157 0.014315866 0.005581219 -0.05497644
000190 22 60 45 3a 21 5b 50 bd 65 86 96 bd e6 92 01 3d
       0.00075292785 -0.050868157 -0.073498525 0.031634234
0001a0 72 4b 8a 3c a3 30 22 bd 66 18 80 3d 33 65 18 3c
       0.016881678 -0.039597165 0.06254654 0.0093014715
0001b0 28 d7 4d 3d 92 12 7b 3d 7c 14 fd 3d 56 79 2f bd
       0.050254017 0.061297007 0.12357423 -0.042840324
0001c0 79 09 ba 3c f7 44 40 3d 14 62 2f bd 62 45 cb bc
       0.022709595 0.04694077 -0.042818144 -0.024813358
0001d0 0e 97 ea bc 4f 95 43 3a 34 69 93 ba 1f 20 3c bc
       -0.028636482 0.00074609084 -0.0011246563 -0.011482268
0001e0 9e 3d 4a bd 60 13 86 bd 67 87 4e bd fe d9 04 bd
       -0.04937517 -0.06546664 -0.0504221 -0.032434456
0001f0 e8 93 ef 3c 67 a9 21 bd ea ff e9 3c 99 37 3c 3d
       0.029245332 -0.039468195 0.028564412 0.04595146
000200 58 38 85 bd 85 c9 df 3c 39 4b 9f 3c a9 e0 ed bc
       -0.06504887 0.027317772 0.019445049 -0.02903779
000210 09 e0 93 bd cf a9 c0 3a 2b 6c 99 bb c4 50 44 bc
       -0.07220466 0.0014699044 -0.004682084 -0.011982147
000220 45 45 b6 bd a4 f0 8d bb cd 54 b4 bc 5e ae 2a 3d
       -0.08899931 -0.004331665 -0.022013092 0.041670196
000230 4b b7 88 bc e5 9e 8d bd c0 99 1b 3d 52 00 a3 3b
       -0.016688963 -0.06915072 0.037988424 0.0049744034
000240 0f ae 9d 3c e8 74 0b bd dd b3 1b bc eb 9b ae bc
       0.019248037 -0.034047037 -0.009503332 -0.021314582
000250 d1 5a 9e 3c 70 ab a4 bd 64 03 29 bd c1 fc 44 3c
       0.019330414 -0.080405116 -0.041263 0.012023152
000260 b2 75 87 bb 85 c6 c0 ba a7 e2 19 3d 43 31 f6 bc
       -0.0041339034 -0.0014707601 0.03756967 -0.030052787
000270 ef 79 16 bb 70 39 2b bd 3e 09 10 3d 41 52 4a bd
       -0.0022960862 -0.041802824 0.035165064 -0.04939485
000280 8b 83 e1 bc d2 1e 5f bd c1 bd c0 3c 34 2a e2 3a
       -0.027528545 -0.054472752 0.023527982 0.0017255009
000290 53 9a 14 bd 5c a5 d7 3c a8 1c 49 bd 73 63 34 3d
       -0.036279988 0.026323967 -0.049099594 0.044040155
0002a0 8d 72 24 bd bc 13 f8 3d 1b 28 d3 bc 33 6e fa bc
       -0.040148307 0.12113139 -0.02577596 -0.030570125
0002b0 7e 0c 21 bb d5 77 6b 3d 97 ef c5 3c 8e 60 35 bc
       -0.0024574096 0.057487328 0.024162097 -0.011070384
0002c0 78 d2 b1 bd 27 9e 68 3d 88 a2 d4 bc 37 53 94 3d
       -0.08682722 0.05679145 -0.025956407 0.072424345
0002d0 d5 52 5f bd 05 41 f0 bc 11 65 2a bc 0c d5 4c bd
       -0.054522354 -0.029327879 -0.010400073 -0.050007865
0002e0 a3 b4 02 3a 50 26 08 3d 4a 10 7e 3c 9a 59 04 3d
       0.00049860234 0.033239663 0.015506813 0.032312013
0002f0 1a 3c 88 bb 03 72 3d 3c 70 cf 5c bc b6 8b 05 bd
       -0.0041575553 0.011562827 -0.013477191 -0.03260394
000300 29 31 5e 3c ab e4 b9 bc ae 61 82 bd 39 2f d6 3c
       0.013561525 -0.022692045 -0.06366287 0.026145564
000310 b5 90 05 3e d9 f2 08 3d a5 78 a4 bd 3e ae fc bc
       0.13043483 0.033434723 -0.080308236 -0.030844804
000320 d9 02 d7 bb d0 c3 2f 3c 11 99 00 3d dc 3e d4 3c
       -0.0065616188 0.010727838 0.031395976 0.02590888
000330 c6 fb 53 bc 14 e6 6f bd 0b 3b c4 3c dc 9a 11 3c
       -0.012938445 -0.05856903 0.023953935 0.008887019
000340 f3 6a a1 3c 98 80 2b bd 34 ae a8 3c 19 32 dc 3c
       0.019704318 -0.041870683 0.020590879 0.026879357
000350 bf 15 7e 3d 79 04 37 bb 78 5e 8a bd 59 26 b2 bb
       0.062032457 -0.002792625 -0.067563 -0.0054367003
000360 c9 36 ac 3c 3c 82 38 bc d8 fc d4 bb 95 52 77 3d
       0.021022217 -0.011261519 -0.006499868 0.06038149
000370 e3 01 3b bd 3d b6 82 bd f8 ce 0b 3d e0 52 21 bc
       -0.045656096 -0.063824154 0.034132928 -0.009846419
000380 b5 09 89 bd ee 6f 68 bc 77 d5 3a 3d c3 15 32 bd
       -0.066913046 -0.014186842 0.045613732 -0.043477785
000390 75 33 96 3c 6e 97 e0 3b da 82 47 bd cd db 5a bb
       0.018335083 0.0068539893 -0.048708774 -0.0033395172
0003a0 aa db d9 bb 6d 46 98 bd d7 70 68 3d be e1 41 bd
       -0.0066485004 -0.07435308 0.056748237 -0.047334425
0003b0 f3 36 5c bc 54 c0 4f 3d e7 44 46 bc e5 04 ae bc
       -0.013440835 0.050720528 -0.012101389 -0.021242568
0003c0 ab ad 14 bd ff 67 6f 3d 54 a2 3d 3d e3 1f 59 bc
       -0.036298435 0.058448788 0.046297386 -0.013252231
0003d0 26 a3 76 bc e7 24 a7 bc 43 1b 80 3d 01 bb df 3b
       -0.015053546 -0.020403339 0.062552 0.0068277125
0003e0 b9 43 93 3c 00 ab 7d 3d 66 e7 ab b8 b5 02 0e 3d
       0.017976629 0.061930656 -8.197017e-05 0.03467055
0003f0 6f cd 06 3d 92 c6 a2 bc 50 12 94 3d a2 17 09 3d
       0.03291076 -0.019870076 0.07230055 0.033469804

bias f4 [12]
000000 bc 6f 06 3e d1 36 c5 bc 96 96 93 bb c3 61 02 be
       0.13128561 -0.02407399 -0.004504035 -0.12732606
000010 b0 eb c6 bd 3a 39 82 bd 98 04 67 3d ce 9d eb bb
       -0.097129226 -0.06358571 0.056400865 -0.0071904426
000020 39 b0 03 be 4c f8 3f be ec d9 1e 3d 4a ad 2c be
       -0.12860192 -0.18747061 0.038782045 -0.1686298
