training/legged_gym/resources/policy/recover_v4_twist.pt (torch, 777150 bytes, 8 tensors)

weight f4 [512, 49]
-0.14281243 -0.10613582 0.024389876 0.02122501 -0.013262214 0.02070049 -0.05229498 -0.45530948
0.37302545 -0.077795014 -0.03555511 0.09638411 0.059730727 0.33770022 -0.4450819 -0.028309226
0.022463327 -0.3312884 -0.40262425 0.15212251 0.27418888 -0.08750493 0.017700931 0.28168085
0.04221193 0.09604854 0.026409201 0.05251212 -0.12326919 -0.018580811 0.035886765 -0.017215889
0.09218588 -0.08450078 -0.038000625 0.14790317 -0.013426349 0.03911246 -0.024169557 0.07006489
0.061673634 -0.017689079 -0.054663423 0.08691117 -0.17196147 0.048504733 0.021929577 -0.20699507
-0.06021916 -0.19782636 0.11158976 -0.0605813 0.13795733 -0.05822792 0.0069919713 -0.007860807
0.078112185 -0.20555964 -0.107043184 -0.11462248 0.30512086 0.016884763 0.041126117 -0.078349814
-0.018165657 -0.09654428 -0.655166 -0.061807927 0.23381929 0.009073567 0.08325795 0.073638625
0.55116856 0.2527227 -0.20813456 0.08969121 -0.09766535 0.084387064 0.020184167 -0.07369521
0.015012378 -0.07367335 -0.04324161 -0.084003314 0.08579728 0.053797565 0.096379705 -0.029662821
0.05381083 -0.09692566 0.048254307 -0.05307591 -0.0026774001 -0.056536514 -0.07459311 -0.032637667
-0.0631783 -0.10663276 0.06905667 0.23953709 -0.011103087 0.10574228 -0.051862314 -0.21705258
0.034032945 -0.552258 0.13118285 -0.21489516 0.11700786 0.14668094 0.1025196 0.19259347
-0.2509228 -0.69083285 -0.43687558 -0.53060156 -0.42929143 -0.1503805 0.011903917 -0.006734557
0.063079745 -0.10722157 -0.10184621 -0.025788235 -0.1812817 -0.025358444 0.048476644 -0.039985977
-0.21446276 0.002927316 -0.06298492 -0.04829064 -0.11835987 -0.10919035 -0.0010245563 0.045490373
0.016788326 0.08087369 -0.031609207 -0.09338455 -0.09496472 -0.07130978 -0.08829269 -0.045820948
-0.11005408 -0.06662707 -0.11807933 0.06675989 -0.030298594 -0.0074550225 0.15465453 0.0045652688
-0.036567178 -0.0011780276 -0.46399617 0.4388231 0.01416705 -0.051437695 -0.1663537 -0.09658983
-0.0028890036 -0.3627579 -0.24407674 0.09069332 -0.25296462 -0.17778116 -0.48492658 0.13696545
0.065110266 -0.29048544 -0.10300904 0.14032495 -0.062539436 -0.043777026 -0.031857405 2.1951906e-05
-0.13999413 -0.14869523 -0.1992938 -0.05299965 0.051264647 -0.025720064 -0.0773478 0.039006293
0.06960087 -0.13246658 -0.0131010255 0.06606792 -0.07650987 0.06516113 -0.1757834 -0.08400914
0.1226468 0.056475926 0.08787085 -0.08333595 -0.094911076 0.016594194 -0.09456184 0.095558554
-0.019560285 0.011240747 0.042748414 -0.280522 0.23992984 0.069047086 -0.08474044 -0.103915416
0.085928254 -0.34346914 0.05098631 -0.22519588 0.010195587 0.00080763275 0.079169266 -0.11055615
0.47636643 0.5284975 0.15727222 -0.18707284 0.018326733 -0.26004702 0.16222876 -0.08744914
0.021783333 0.017081385 -0.047143586 0.16010791 -0.09328255 0.018571086 0.0390253 0.029259028
0.043909367 0.042396106 -0.1377937 0.055123895 -0.16470769 0.06207844 0.08736482 -0.056537297
-0.0039515602 -0.16519617 0.002065317 0.052049328 0.061400317 0.09384512 -0.0687287 0.051079106
0.013578265 0.014944148 -0.09416634 -0.14854483 0.12372742 -0.26579174 0.03902121 -0.038926028
00000000: 6c3d 12be bd5d d9bd 47cd c73c 12e0 ad3c
00000010: c249 59bc 1394 a93c 4333 56bd 531e e9be
00000020: 31fd be3e fe52 9fbd 3ca2 11bd 0865 c53d
00000030: 35a8 743d 0be7 ac3e c6e1 e3be c0e8 e7bc
00000040: 0305 b83c a29e a9be c424 cebe 01c6 1b3e
00000050: 7c62 8c3e c935 b3bd 8b01 913c 7938 903e
00000060: 6be6 2c3d 19b5 c43d 1c58 d83c f316 573d
00000070: 8f74 fcbd c936 98bc 00fe 123d 5608 8dbc
00000080: f3cb bc3d bf0e adbd 8ba6 1bbd ee73 173e
00000090: 30fa 5bbc 6334 203d 3cff c5bc 2e7e 8f3d
000000a0: 7e9d 7c3d b0e8 90bc c1e6 5fbd 7cfe b13d
000000b0: ab16 30be e6ac 463d a8a5 b33c 84f6 53be
000000c0: 5ea8 76bd fe92 4abe 2c89 e43d 1924 78bd
000000d0: b044 0d3e 6680 6ebd e81c e53b 9dca 00bc
000000e0: 48f9 9f3d 3a7e 52be 7539 dbbd 31bf eabd
000000f0: cd38 9c3e ea51 8a3c dc73 283d de75 a0bd
00000100: 25d0 94bc 02b9 c5bd f5b8 27bf 4f2a 7dbd
00000110: 536e 6f3e 4ca9 143c 2583 aa3d d9cf 963d
00000120: 6219 0d3f df64 813e 3a21 55be 06b0 b73d
00000130: c504 c8bd 20d3 ac3d 4459 a53c 84ed 96bd
00000140: 7af6 753c 0ee2 96bd 1d1e 31bd ee09 acbd
00000150: 7cb6 af3d d65a 5c3d b962 c53d 72ff f2bc
00000160: bf68 5c3d f680 c6bd 4fa6 453d 2066 59bd
00000170: 5277 2fbb d592 67bd 46c4 98bd 13af 05bd
00000180: a063 81bd 4762 dabd 956d 8d3d 3649 753e
00000190: b9e9 35bc 698f d83d 946d 54bd 0843 5ebe
000001a0: 2166 0b3d c860 0dbf cc54 063e 7a0d 5cbe
000001b0: d1a1 ef3d 8733 163e ccf5 d13d 3937 453e
000001c0: f478 80be 6cda 30bf 28ae dfbe 81d5 07bf
000001d0: 16cc dbbe 59fd 19be a608 433c 8fad dcbb
000001e0: f42f 813d fc96 dbbd bf94 d0bd d941 d3bc
000001f0: e9a1 39be 83bc cfbc 728f 463d 56c8 23bd
00000200: 209c 5bbe 36d8 3f3b 3dfe 80bd 68cc 45bd
00000210: a966 f2bd 319f dfbd 684a 86ba 1d54 3a3d
00000220: ac87 893c 1ba1 a53d a878 01bd 6640 bfbd
00000230: dd7c c2bd dd0a 92bd ccd2 b4bd bfae 3bbd
00000240: 0964 e1bd c673 88bd 93d3 f1bd 69b9 883d
00000250: c234 f8bc 4349 f4bb c25d 1e3e 4098 953b
00000260: 77c7 15bd 0c68 9aba e890 edbe 6cad e03e
00000270: ea1c 683c 55b0 52bd a058 2abe e4d0 c5bd
00000280: 7055 3dbb 67bb b9be 41ef 79be 6bbd b93d
00000290: 9484 81be 440c 36be 4c48 f8be ac40 0c3e
000002a0: 8858 853d 82ba 94be 67f6 d2bd 58b1 0f3e
000002b0: ad14 80bd 8a4f 33bd e97c 02bd 5c25 b837
000002c0: 9f5a 0fbe 9043 18be ad13 4cbe 2916 59bd
000002d0: e1fa 513d e2b2 d2bc 8668 9ebd 10c5 1f3d
000002e0: e78a 8e3d 52a5 07be afa5 56bc 9e4e 873d
000002f0: 35b1 9cbd 3373 853d 9000 34be fc0c acbd
00000300: 3f2e fb3d 4d53 673d a2f5 b33d 0aac aabd
00000310: bd60 c2bd 8cf0 873c a3a9 c1bd 34b4 c33d
00000320: e43c a0bc 1c2b 383c f618 2f3d 94a0 8fbe
00000330: 2bb0 753e 8f68 8d3d 658c adbd 9bd1 d4bd
00000340: 27fb af3d 30db afbe 05d7 503d c099 66be
00000350: 640b 273c 51b7 533a 7f23 a23d 436b e2bd
00000360: 4de6 f33e 9d4b 073f f80b 213e 0690 3fbe
00000370: f221 963c e224 85be 4c1f 263e 8918 b3bd
00000380: f672 b23c 43ee 8b3c a219 41bd 54f3 233e
00000390: ec0a bfbd 6422 983c fed8 1f3d a1b0 ef3c
000003a0: 4fda 333d 8aa7 2d3d cb19 0dbe 98c9 613d
000003b0: 22a9 28be f645 7e3d 54ec b23d a793 67bd
000003c0: 177c 81bb 2f29 29be 455a 073b ad31 553d
000003d0: e67e 7b3d df31 c03d a2c1 8cbd 5338 513d
000003e0: 5f77 5e3c 4dd8 743c 48da c0bd 231c 18be
000003f0: cd64 fd3d db15 88be b4d4 1f3d e670 1fbd

bias f4 [512]
0.03541293 -0.045363594 0.2468194 0.10509882 0.10209764 0.048555776 0.09300644 -0.048026096
-0.14065668 0.17032278 0.11425796 -0.16779041 -0.20310612 0.072627865 -0.22639298 0.05597476
0.14316061 -0.12717363 -0.2803601 -0.014390644 -0.10393302 -0.021565977 -0.2589691 -0.13655822
-0.16632129 0.15232965 -0.13840674 0.1879305 -0.18204588 0.01648163 -0.02819954 -0.15777166
-0.0043909987 -0.21754703 0.16716996 -0.09929206 0.06678704 0.10428892 -0.014686263 -0.14330617
0.019587798 -0.09651063 0.0356267 0.044450764 0.043370698 0.22031064 -0.20402242 -0.093633555
-0.12430337 -0.18005551 -0.0010512315 -0.14033674 -0.15831015 0.082297936 -0.11689241 0.015217946
-0.09166419 -0.19266033 0.06605753 -0.070529066 -0.15846322 -0.06517361 -0.0050468193 -0.028506922
-0.008509135 0.087501734 -0.20041613 -0.0962106 -0.1570821 -0.0898523 -0.0046906774 0.15044674
-0.16135925 0.1679105 0.18341082 0.07675593 0.05408791 -0.18542236 0.012791731 0.2431079
-0.11761292 -0.1483458 0.24093996 -0.0013302668 0.21878809 -0.18132854 0.15582345 0.12922566
-0.14154176 0.17513973 0.13483244 -0.003701253 -0.1440099 -0.12921187 0.009107076 0.07752352
-0.11270218 -0.07242981 -0.25835782 -0.07082531 -0.20298804 0.15023448 -0.15021181 -0.058427203
-0.11516435 -0.22420758 0.19450861 0.14467911 -0.10718023 0.12549579 0.01618474 -0.023978215
0.07108299 -0.12372689 0.004409796 0.16754411 0.106396645 0.030259177 0.12502122 0.063033886
-0.13201618 -0.065471865 0.092804804 -0.13984518 -0.024104018 0.031403158 -0.05675531 -0.033369925
0.10305519 0.012050349 -0.13133079 -0.17813191 -0.13680021 -0.029926129 -0.09530636 -0.12256685
-0.15523009 0.08854762 -0.016938478 0.05136629 0.056427263 0.16684292 -0.13939895 0.12741764
0.11952417 0.0939471 -0.0772355 -0.061671495 -0.112171054 -0.106190585 -0.18094623 0.07899337
0.17758037 -0.008806155 -0.17304802 0.054419253 -0.1921326 0.054673783 0.090967275 0.13587311
-0.17576396 -0.05933194 -0.09251051 -0.17408621 -0.011632284 0.017085962 -0.13927726 0.030834636
0.10796866 0.1251654 -0.1842136 0.01998051 -0.10440981 0.08684466 -0.19824727 0.040726364
0.156875 -0.041938182 -0.22073731 -0.038985 0.17443804 0.15469678 -0.0060804337 0.05937457
0.1128344 0.05807756 -0.13692528 0.049013924 -0.089593835 0.11388481 -0.17270564 0.06235121
0.15868166 0.081141725 -0.050895553 0.14754009 -0.042135037 0.19750239 0.008418694 0.15467179
-0.013825686 0.02426134 0.027316647 0.18741429 0.19471967 -0.17016059 0.16605356 -0.24344304
-0.23414306 -0.21442698 -0.0846668 0.103733286 0.09013033 -0.016288405 -0.12648705 0.002556233
0.21782112 0.115193956 0.18076974 0.2999874 -0.1105247 -0.15621755 -0.14478007 0.17949355
0.02801222 -0.1651807 0.067715816 -0.05161563 -0.028360553 -0.10880674 -0.007778956 -0.16317151
0.16664201 0.11830077 -0.23949711 -0.020867879 0.034968503 -0.05264007 -0.18011618 0.10869131
0.04329699 0.1579926 0.18037035 -0.16266216 -0.10061395 0.03521741 -0.12085687 -0.045436334
-0.12358072 -0.12078446 -0.07816929 0.16380282 -0.28085285 -0.11028906 -0.072841845 -0.057414215
00000000: 260d 113d 2dcf 39bd 3abe 7c3e 0d3e d73d
00000010: 9118 d13d 6ce2 463d 297a be3d 03b7 44bd
00000020: 4e08 10be 1869 2e3e 1400 ea3d 40d1 2bbe
00000030: 0dfb 4fbe ebbd 943d 90d3 67be ca45 653d
00000040: b298 123e ce39 02be 5c8b 8fbe bcc6 6bbc
00000050: d6da d4bd 22ab b0bc 9997 84be ebd5 0bbe
00000060: 2150 2abe 4efc 1b3e 7fba 0dbe da70 403e
00000070: 3c6a 3abe 7c04 873c b902 e7bc e58e 21be
00000080: 5ee2 8fbb a6c4 5ebe 9a2e 2b3e a359 cbbd
00000090: a5c7 883d 6e95 d53d a79e 70bc dabe 12be
000000a0: 9776 a03c 5da7 c5bd 4ded 113d 0112 363d
000000b0: 79a5 313d 1d99 613e 41eb 50be f3c2 bfbd
000000c0: c492 febd 7960 38be 7ac9 89ba 6fb4 0fbe
000000d0: 0e1c 22be d28b a83d 4a65 efbd b154 793c
000000e0: 6fba bbbd c048 45be 2c49 873d 8b71 90bd
000000f0: 2f44 22be be79 85bd ca5f a5bb 5987 e9bc
00000100: e669 0bbc 1c34 b33d e339 4dbe 100a c5bd
00000110: 21da 20be 7c04 b8bd 41b4 99bb b60e 1a3e
00000120: 5c3b 25be bbf0 2b3e 0cd0 3b3e 3732 9d3d
00000130: 498b 5d3d 5cdf 3dbe 6994 513c 47f1 783e
00000140: 0bdf f0bd f6e7 17be f7b8 763e 595c aeba
00000150: fc09 603e 30ae 39be 2f90 1f3e bb53 043e
00000160: 53f0 10be d457 333e 8411 0a3e b990 72bb
00000170: 5577 13be 1e50 04be d835 153c a7c4 9e3d
00000180: 67d0 e6bd 1556 94bd 7a47 84be dc0c 91bd
00000190: 19dc 4fbe 11d7 193e 20d1 19be 5d51 6fbd
000001a0: 49db ebbd ac96 65be 442d 473e c326 143e
000001b0: 4f81 dbbd f881 003e dc95 843c f66d c4bc
000001c0: f593 913d 8664 fdbd 0d80 903b af90 2b3e
000001d0: 7ce6 d93d 18e2 f73c 9005 003e e917 813d
000001e0: 402f 07be 1d16 86bd 7210 be3d 9333 0fbe
000001f0: ca75 c5bc 99a0 003d 4278 68bd e7ae 08bd
00000200: 990e d33d d46e 453c 947b 06be 3668 36be
00000210: 5b15 0cbe a427 f5bc fb2f c3bd 5404 fbbd
00000220: a3f4 1ebe 7458 b53d 90c2 8abc 7565 523d
00000230: 4620 673d dfd8 2a3e 99be 0ebe c579 023e
00000240: 17c9 f43d 5667 c03d a52d 9ebd 409b 7cbd
00000250: f0b9 e5bd 737a d9bd f849 39be 47c7 a13d
00000260: a1d7 353e b147 10bc 8033 31be b9e6 5e3d
00000270: 69be 44be 9ef1 5f3d 0d4d ba3d 5222 0b3e
00000280: 78fb 33be 0c06 73bd 2676 bdbd a843 32be
00000290: 5695 3ebc dcf7 8b3c b39e 0ebe eb98 fc3c
000002a0: ac1e dd3d 5c2b 003e 7da2 3cbe 2bae a33c
000002b0: cfd4 d5bd 9ddb b13d 5501 4bbe b0d0 263d
000002c0: d7a3 203e 5fc7 2bbd f608 62be bcae 1fbd
000002d0: e39f 323e d568 1e3e 603e c7bb c032 733d
000002e0: b915 e73d bce2 6d3d 2436 0cbe d3c2 483d
000002f0: f97c b7bd 703c e93d bfd9 30be fb63 7f3d
00000300: 727d 223e a22d a63d db77 50bd c014 173e
00000310: ca95 2cbd 113e 4a3e 90ee 093c 4862 1e3e
00000320: 2185 62bc b8bf c63c 29c7 df3c 88e9 3f3e
00000330: 9864 473e 943e 2ebe f209 2a3e 2249 79be
00000340: 33c3 6fbe bf92 5bbe ca65 adbd 1e72 d43d
00000350: 4096 b83d 436f 85bc d285 01be 7986 273b
00000360: 800c 5f3e cfea eb3d b41b 393e f397 993e
00000370: c65a e2bd 7ef7 1fbe 3a41 14be 28cd 373e
00000380: e279 e53c 2125 29be 97ae 8a3d e96a 53bd
00000390: 6454 e8bc 11d6 debd 9de6 febb 6f16 27be
000003a0: 34a4 2a3e ad47 f23d bb3e 75be 1df3 aabc
000003b0: 223b 0f3d 1d9d 57bd 6070 38be 8d99 de3d
000003c0: 2f58 313d d0c8 213e 01b3 383e e990 26be
000003d0: b00e cebd 2240 103d cf83 f7bd 731b 3abd
000003e0: e317 fdbd d85d f7bd 3917 a0bd edbb 273e
000003f0: f2cb 8fbe 3bdf e1bd 1b2e 95bd 2b2b 6bbd

weight f4 [256, 512]
0.12750958 0.12862197 0.001341739 0.019816272 -0.06739939 -0.016927086 0.020863842 -0.010382726
0.07917621 0.04837691 -0.12706584 0.09309156 0.014620708 0.05695279 0.15582798 -0.014606681
-0.037752237 0.024467926 -0.08852861 -0.05735891 0.08854022 0.02853813 0.019993879 0.18135199
-0.06677826 0.02689414 -0.020058228 0.0033655278 0.019382063 0.04496019 -0.07388709 0.12665063
-0.029239343 0.16706689 -0.059372827 0.11413986 0.044100635 -0.029793862 -0.06449861 -0.06531923
0.0043141474 -0.0077212616 0.044434167 -0.038220733 0.0006160354 0.03264444 0.03801753 0.10913489
-0.105038285 -0.070894524 -0.046194877 0.059467 -0.01422003 -0.0770481 -0.019277811 -0.071628794
-0.0021183705 0.01610342 0.15037674 0.04942547 0.056416802 -0.1110386 -0.05685841 -0.039322577
-0.0031416842 -0.03161176 0.049214307 0.022446975 -0.032750748 -0.00015560076 0.0071555264 -0.013824804
-0.009495327 0.08417872 -0.12931079 0.026861636 -0.07383099 -0.052695274 -0.013029599 -0.019632727
0.023480734 0.042340655 -0.112193234 0.026621167 -0.238773 -0.009402025 0.04006049 -0.02662776
-0.0816351 0.04782166 0.03574723 0.14480262 -0.026395109 -0.057059526 0.0043859766 -0.14497921
0.008377269 0.11908675 0.06597879 0.14774719 0.12221574 -0.050644383 0.073815726 0.023657234
0.01785881 0.05415114 0.06475188 -0.12195482 0.0062615396 -0.1027325 -0.08263922 0.019066181
0.060000833 0.116646014 -0.031609043 -0.20295568 0.07371671 -0.05897471 -0.013997594 -0.07067813
0.016269326 0.03694996 -0.071791835 -0.08776745 0.022325788 -0.11502303 0.06109085 0.0667658
0.10307513 -0.045724925 0.039240062 0.09638185 -0.080414586 -0.04556331 0.006350395 -0.09337095
-0.08112577 -0.045599893 0.011547824 -0.048712157 0.08759052 -0.039151855 -0.0071617784 -0.05174335
-0.025766613 -0.19922175 0.01832495 -0.11445786 -0.08524173 -0.07024275 0.044531487 -0.106989495
0.011923743 0.057678808 -0.004420578 -0.12721403 -0.013985162 -0.03254895 0.06258217 -0.0028638833
0.102497116 0.03720559 0.0058779046 -0.061754253 -0.10363769 -0.018934265 -0.021576127 0.078650124
0.12362992 -0.06252785 -0.018023787 0.0133528765 -0.007455978 0.15268427 -0.0317228 -0.098435335
-0.06632343 0.1149831 -0.025610048 0.0063616456 -0.06012899 -0.115545094 -0.07259326 0.06361837
-0.24570578 -0.052975155 -0.04384923 -0.07686492 0.01861714 0.0979758 0.014313032 -0.09144298
-0.0032348053 -0.011865929 0.010041222 0.048460897 0.1670466 -0.08478171 -0.020794813 -0.11157818
-0.02121815 0.02029998 0.048998673 -0.02372218 0.0034240936 0.124351725 -0.035095595 0.13482283
0.034478486 -0.0900444 0.16626069 -0.04468737 -0.029863019 -0.00020295072 0.081064284 0.07475196
-0.05313461 0.09298281 0.029256191 -0.017206687 -0.09824507 -0.057479914 0.15293364 -0.10490006
0.07125789 0.03424851 -0.14800937 -0.054697514 -0.024573555 0.0076616122 -0.05129621 0.010438945
-0.06888129 -0.047492612 -0.043944243 -0.06413453 -0.04095937 0.020416882 0.11747782 0.0036867852
-0.029358976 -0.08598112 0.047995042 0.027649304 0.05003367 -0.18818824 0.07150799 -0.11394059
-0.037116945 -0.0938359 -0.07413856 -0.0014390349 -0.038076945 0.13826199 -0.054052804 -0.017915023
00000000: df91 023e 7ab5 033e 4add af3a bc55 a23c
00000010: b108 8abd acaa 8abc a6ea aa3c 4f1c 2abc
00000020: 2327 a23d de26 463d 8c1d 02be caa6 be3d
00000030: b28b 6f3c 5447 693d 5f91 1f3e dc50 6fbc
00000040: 17a2 1abd f670 c83c 7d4e b5bd 2df1 6abd
00000050: 9354 b53d ccc8 e93c 34ca a33c 56b4 393e
00000060: 0ac3 88bd 1951 dc3c 2751 a4bc 3090 5c3b
00000070: 22c7 9e3c 2d28 383d 1d52 97bd b4b0 013e
00000080: 5987 efbc 9513 2b3e ec30 73bd 29c2 e93d
00000090: dea2 343d 4212 f4bc d917 84bd 17c6 85bd
000000a0: b15d 8d3b a302 fdbb 9a00 363d 588d 1cbd
000000b0: 707d 213a 2db6 053d 45b8 1b3d 1d82 df3d
000000c0: 501e d7bd 2631 91bd d736 3dbd ab93 733d
000000d0: 21fb 68bc 65cb 9dbd 80ec 9dbc 1eb2 92bd
000000e0: 5cd4 0abb 52eb 833c 5cfc 193e 5d72 4a3d
000000f0: 4e15 673d 3568 e3bd 5de4 68bd b610 21bd
00000100: b7e4 4dbb 557b 01bd f194 493d b8e2 b73c
00000110: a625 06bd c328 23b9 e878 ea3b 6e81 62bc
00000120: 4a92 1bbc e565 ac3d 0c6a 04be ef0c dc3c
00000130: b434 97bd 00d7 57bd 197a 55bc d0d4 a0bc
00000140: ab5a c03c 656d 2d3d 91c5 e5bd a214 da3c
00000150: e980 74be f30a 1abc 7816 243d 7622 dabc
00000160: 4e30 a7bd a5e0 433d b06b 123d 2347 143e
00000170: 8e3a d8bc 40b7 69bd 3db8 8f3b 6e75 14be
00000180: d040 093c c1e3 f33d e31f 873d 0a4b 173e
00000190: 3f4c fa3d 7c70 4fbd b32c 973d d1cc c13c
000001a0: a44c 923c 96cd 5d3d a29c 843d 73c3 f9bd
000001b0: 9a2d cd3b 6b65 d2bd c03e a9bd ae30 9c3c
000001c0: 6fc3 753d 1be4 ee3d 7c78 01bd 9dd3 4fbe
000001d0: c9f8 963d 778f 71bd 2a56 65bc b2bf 90bd
000001e0: 4047 853c d758 173d 9907 93bd 6cbf b3bd
000001f0: 92e4 b63c 3291 ebbd 663a 7a3d 82bc 883d
00000200: 0e19 d33d 0f4a 3bbd 30ba 203d d963 c53d
00000210: 67b0 a4bd 98a0 3abd f916 d03b 4539 bfbd
00000220: 4525 a6bd f4c6 3abd 1633 3d3c 6686 47bd
00000230: a962 b33d b25d 20bd 5aad eabb d6f0 53bd
00000240: 8114 d3bc c900 4cbe 351e 963c e268 eabd
00000250: 3793 aebd 6edb 8fbd a666 363d 4f1d dbbd
00000260: ce5b 433c 9d40 6c3d 7fda 90bb 6544 02be
00000270: 0522 65bc 0c52 05bd 152b 803d fdaf 3bbb
00000280: 02ea d13d e464 183d 709b c03b 07f2 7cbd
00000290: ff3f d4bd 081c 9bbc 6bc0 b0bc 5113 a13d
000002a0: af31 fd3d 9a0e 80bd 9fa6 93bc 06c6 5a3c
000002b0: 4751 f4bb 4459 1c3e c4ef 01bd 7798 c9bd
000002c0: 94d4 87bd 427c eb3d 2acc d1bc 5a75 d03b
000002d0: d149 76bd e8a2 ecbd c6ab 94bd 594a 823d
000002e0: 4c9a 7bbe 7afc 58bd 409b 33bd 5b6b 9dbd
000002f0: f982 983c 89a7 c83d 3581 6a3c 7546 bbbd
00000300: 07ff 53bb 5069 42bc f083 243c ef7e 463d
00000310: 440e 2b3e 08a2 adbd e259 aabc 1a83 e4bd
00000320: b0d1 adbc 254c a63c d5b2 483d 0455 c2bc
00000330: c266 603b 1eac fe3d 66c0 0fbd ff0e 0a3e
00000340: 5039 0d3d 3369 b8bd 3e40 2a3e 1b0a 37bd
00000350: 4aa3 f4bc 2bcf 54b9 0805 a63d 8e17 993d
00000360: ada3 59bd c66d be3d aeaa ef3c 0af5 8cbc
00000370: b634 c9bd 0f70 6bbd a39a 1c3e d8d5 d6bd
00000380: a8ef 913d 2a48 0c3d c58f 17be 800a 60bd
00000390: 7b4e c9bc 430e fb3b fa1b 52bd 1c08 2b3c
000003a0: a211 8dbd 9d87 42bd e1fe 33bd f758 83bd
000003b0: 03c5 27bd 4e41 a73c 3698 f03d fe9d 713b
000003c0: 3c82 f0bc df16 b0bd 7396 443d cb80 e23c
000003d0: 1bf0 4c3d 6bb4 40be c872 923d af59 e9bd
000003e0: f007 18bd 092d c0bd f5d5 97bd 009e bcba
000003f0: 92f6 1bbd 8d94 0d3e 7966 5dbd 87c2 92bc

bias f4 [256]
-0.06991486 -0.027305234 -0.16022326 -0.061151054 -0.07545574 0.0058455113 -0.076016925 -0.019982498
0.09894752 -0.07949359 -0.10814028 -0.113867804 0.0037150728 -0.10518199 0.026061222 -0.025162151
-0.019281087 -0.02054727 0.056060314 -0.12165682 0.021663483 -0.027567746 -0.024713544 -0.038535606
-0.019251222 -0.055520512 -0.16204275 -0.07226938 0.0011300886 0.050598305 0.0069703404 -0.08251874
-0.09624879 0.015703285 -0.04441814 -0.122365184 -0.008111617 0.06197665 -0.04373885 -0.03737158
-0.024814768 -0.09866321 -0.077245824 -0.06255541 -0.0019742788 -0.038147073 -0.08702023 0.0017421236
-0.08078524 0.0006381562 -0.0024735606 -0.01581956 -0.034307502 -0.1582642 0.0036723106 0.0075823846
0.034336053 0.011402364 -0.14716877 -0.11693281 -0.11112522 -0.1060348 0.008422538 -0.116946325
-0.057252828 -0.047319308 0.021557126 -0.080644235 -0.03487847 -0.08388567 -0.022899766 0.012313283
-0.050936308 -0.064555176 -0.012280825 -0.004206606 -0.06563971 0.014313378 -0.12447122 -0.17741306
0.045256317 0.035608776 -0.07593252 -0.012205224 -0.123076536 -0.0657471 -0.05461579 0.01303073
0.019786973 -0.13138367 -0.05243785 0.03694 -0.051032886 -0.104633525 -0.0057981 -0.09807461
-0.0033485282 -0.05108261 -0.06339062 0.0130748255 -0.055177808 0.0020436088 -0.10418618 -0.114075884
-0.051091745 -0.052115183 -0.10192845 0.00874627 -0.041075174 0.038101427 -0.03936982 -0.06643364
-0.13713615 -0.090017416 -0.027985867 -0.079032704 -0.031435866 -0.035484284 -0.067749016 -0.07517156
0.05319916 -0.07602729 -0.030670684 -0.12260514 0.05615908 -0.02073417 -0.06250538 -0.1280875
0.00027678258 -0.09466336 -0.10047224 0.024336137 -0.07582501 -0.06760637 -0.0052141952 -0.09982788
-0.0846669 -0.16403213 -0.1013448 -0.07385519 -0.12511946 -0.08189187 -0.049946576 -0.08822809
-0.1225838 -0.21730374 -0.020498635 -0.14076877 -0.0005528864 -0.08636438 -0.11349701 -0.0663264
-0.015553936 0.015467323 0.009698085 -0.014488679 -0.049058855 -0.047595363 -0.009927542 -0.08049072
-0.11187544 -0.045191113 -0.0044103097 0.0042259907 -0.10308136 -0.09356312 -0.04607 -0.094681814
0.021586372 -0.050463844 -0.09186039 0.03519123 0.007254961 -0.033947825 -0.039718814 -0.029380644
-0.04595153 -0.02114388 -0.041193493 -0.0492232 -0.03682928 -0.0020709883 -0.044962384 -0.0043617943
0.0036493284 -0.06305988 -0.030065535 -0.08133673 -0.039112724 -0.04917311 -0.03109334 -0.052523304
-0.043240145 -0.079177424 -0.104427174 -0.07664116 -0.0117455255 -0.040491205 -0.034846373 -0.19381893
-0.025736284 0.020523628 -0.12229849 -0.109084815 -0.022184025 -0.12945093 -0.11859936 -0.0824217
-0.10021025 -0.029581513 -0.07711754 0.011246579 -0.04966485 -0.107808776 -0.06485918 -0.037044007
-0.0025478739 -0.06839106 -0.064801864 -0.053506218 -0.086505555 -0.058388427 -0.07041978 -0.07313743
-0.07821523 -0.0849376 -0.029601313 -0.07389517 -0.10722068 -0.081126854 -0.09125318 -0.21225362
0.06266 -0.005436265 -0.08522354 -0.03315456 -0.0019221734 -0.0869766 -0.03041343 -0.09254648
-0.060221564 -0.05942932 -0.018618133 -0.14285447 -0.06299544 -0.043215692 0.041487098 -0.09634493
-0.044973 -0.017855052 -0.09365788 -0.08629078 -0.078237206 -0.06565081 -0.17745991 -0.021339327
00000000: 862f 8fbd 3aaf dfbc 9111 24be 8779 7abd
00000010: 8a88 9abd b48b bf3b c3ae 9bbd 56b2 a3bc
00000020: ffa4 ca3d 89cd a2bd a778 ddbd 8633 e9bd
00000030: 9478 733b a869 d7bd 587e d53c db20 cebc
00000040: 5ff3 9dbc c052 a8bc 809f 653d 3627 f9bd
00000050: 9e77 b13c c1d5 e1bc 0f74 cabc 83d7 1dbd
00000060: bdb4 9dbc 7a69 63bd 89ee 25be f801 94bd
00000070: 7b1f 943a 2b40 4f3d 7467 e43b 96ff a8bd
00000080: 161e c5bd 2da4 803c ccef 35bd 999a fabd
00000090: 96e6 04bc 3adb 7d3d 8227 33bd f112 19bd
000000a0: 5748 cbbc f00f cabd 0f33 9ebd 0d1d 80bd
000000b0: e762 01bb 1b40 1cbd aa37 b2bd f857 e43a
000000c0: bb72 a5bd f049 273a 761b 22bb 0698 81bc
000000d0: 0686 0cbd 0310 22be 26ab 703b a775 f83b
000000e0: f6a3 0c3d fbd0 3a3c 69b3 16be 787a efbd
000000f0: 9f95 e3bd c628 d9bd affe 093c 8e81 efbd
00000100: f181 6abd e4d1 41bd 9298 b03c ce28 a5bd
00000110: badc 0ebd 40cc abbd 4a98 bbbc a7bd 493c
00000120: 97a2 50bd 8135 84bd 8335 49bc 92d7 89bb
00000130: 1d6e 86bd a982 6a3c c4ea febd c5ab 35be
00000140: b05e 393d 82da 113d 8282 9bbd 6bf8 47bc
00000150: 8d0f fcbd 6aa6 86bd ceb4 5fbd d87e 553c
00000160: 4a18 a23c 7189 06be 12c9 56bd 664e 173d
00000170: dc07 51bd 1a4a d6bd fdfd bdbb 57db c8bd
00000180: fb72 5bbb 003c 51bd f1d2 81bd cb37 563c
00000190: 2002 62bd 11ee 053b 905f d5bd 9ea0 e9bd
000001a0: 9445 51bd bb76 55bd ddbf d0bd 844c 0f3c
000001b0: 713e 28bd 3e10 1c3d 4042 21bd 5c0e 88bd
000001c0: 6b6d 0cbe 0d5b b8bd 9e42 e5bc e6db a1bd
000001d0: e5c2 00bd f857 11bd ffbf 8abd 8cf3 99bd
000001e0: 5de7 593d 32b4 9bbd 1641 fbbc 6718 fbbd
000001f0: 1007 663d b5da a9bc d202 80bd 5f29 03be
00000200: 211d 9139 ddde c1bd 64c4 cdbd 945c c73c
00000210: 254a 9bbd 3575 8abd d7db aabb 8f72 ccbd
00000220: d765 adbd 0af8 27be dd8d cfbd 6441 97bd
00000230: 511f 00be edb6 a7bd c894 4cbd eeb0 b4bd
00000240: 370d fbbd df84 5ebe c1ec a7bc b025 10be
00000250: 94ef 10ba cfdf b0bd 1f71 e8bd 23d6 87bd
00000260: f0d5 7ebc a86a 7d3c b7e4 1e3c ed61 6dbc
00000270: f0f1 48bd 5bf3 42bd 21a7 22bc 52d8 a4bd
00000280: f31e e5bd 511a 39bd 5c84 90bb 2e7a 8a3b
00000290: 521c d3bd 059e bfbd e5b3 3cbd 8ae8 c1bd
000002a0: e7d5 b03c 2db3 4ebd 4d21 bcbd ae24 103d
000002b0: 06bb ed3b e00c 0bbd 32b0 22bd adaf f0bc
000002c0: ac37 3cbd ee35 adbc 82ba 28bd 449e 49bd
000002d0: 4dda 16bd 6bb9 07bb 7a2a 38bd 62ed 8ebb
000002e0: 9229 6f3b 8a25 81bd ff4b f6bc df93 a6bd
000002f0: aa34 20bd be69 49bd 76b7 febc ad22 57bd
00000300: 941c 31bd c627 a2bd eadd d5bd 0af6 9cbd
00000310: 4e70 40bc 1bda 25bd 12bb 0ebd 7878 46be
00000320: e6d4 d2bc 2b21 a83c a177 fabd dc67 dfbd
00000330: 46bb b5bc c98e 04be 39e4 f2bd b5cc a8bd
00000340: 083b cdbd ee54 f2bc cdef 9dbd 9243 383c
00000350: 5f6d 4bbd d9ca dcbd e4d4 84bd 75bb 17bd
00000360: 3bfa 26bb 9d10 8cbd d7b6 84bd 5629 5bbd
00000370: d329 b1bd b428 6fbd 3f38 90bd 14c9 95bd
00000380: 4e2f a0bd c4f3 adbd 747e f2bc 5a56 97bd
00000390: 8496 dbbd d625 a6bd f2e2 babd 0359 59be
000003a0: e353 803d b222 b2bb ae89 aebd 13cd 07bd
000003b0: 70f1 fbba ca20 b2bd 9625 f9bc 0289 bdbd
000003c0: e3aa 76bd 296c 73bd 0e85 98bc 7148 12be
000003d0: c103 81bd f002 31bd 60ee 293d 7e50 c5bd
000003e0: 9c35 38bd c244 92bc b4cf bfbd 38b9 b0bd
000003f0: d43a a0bd ef73 86bd 0db8 35be d0cf aebc

weight f4 [128, 256]
-0.09772992 0.06919572 -0.04768355 0.064502515 -0.0112897465 -0.050508287 0.029660624 -0.11004673
0.014402567 0.036715977 -0.023530507 0.003768731 0.0054933494 -0.092584684 -0.031557396 -0.21917689
-0.047618806 0.06079269 0.0026012068 0.13331544 0.105488464 0.02613582 -0.044459075 0.014481845
-0.0450985 0.07296697 0.15192403 -0.06288497 -0.01969383 -0.053423166 -0.033360507 -0.009009797
-0.024426369 -0.08508848 -0.02078636 0.05801753 -0.05833965 0.03319192 -0.08064307 -0.06564481
-0.021003257 0.028892895 0.08081871 -0.04896545 -0.0063671703 0.0847302 0.003976683 -0.0191725
-0.03310609 0.010213954 -0.0019464483 -0.060062487 -0.04507545 -0.058526985 0.04382624 0.030509233
0.019637551 -0.0013531517 -0.0124490345 -0.007780766 0.064913295 -0.0014253205 -0.080497086 0.0015470423
-0.05612305 0.022536429 -0.116525635 0.029466618 -0.100511216 0.0035240264 0.038304493 -0.07387035
0.0039302604 -0.04513205 0.09772427 -0.08547195 -0.07414337 0.014248539 0.061780952 0.006374841
0.01110873 -0.11669429 -0.05329097 0.05433021 0.03039637 0.036068678 -0.048644546 0.042516798
-0.06760399 -0.019438326 0.08776859 0.12195634 0.015331436 0.021401916 -0.07019865 0.03610296
-0.056134887 -0.013989448 0.060655452 0.04720736 -0.07238424 0.019127987 -0.00889819 -0.0009965656
-0.049791068 0.06250267 0.041254524 0.019045167 0.012257871 -0.10372338 -0.1807838 -0.059549518
0.003296889 0.04004637 -0.01827769 -0.033328164 -0.062426973 0.072199844 -0.036293115 0.0238722
-0.028220678 0.028932707 -0.06099714 -0.08793776 0.06875368 -0.1809327 0.042857233 0.0067998744
0.0059045814 -0.01246783 0.047805585 0.025627384 -0.00087964494 0.056260668 0.019257419 -0.061078347
-0.05349455 0.21054146 0.057545703 -0.0766569 -0.058268458 -0.053389844 -0.00081541226 0.01167224
-0.015531086 0.03417909 -0.07822797 -0.053327054 0.0019514806 -0.018308878 0.08425233 -0.16014022
0.08748503 0.014956671 -0.10702346 -0.049201228 -0.03794403 0.0619262 0.05438031 -0.058114477
-0.0033129747 0.021267002 -0.12590367 -0.081158005 0.02879338 -0.07590637 0.09302143 -0.008926623
-0.018917264 -0.0055997465 -0.057631433 -0.044657655 0.086027265 0.07197586 0.07410716 0.06462637
-0.07887026 0.0221059 -0.06935921 -0.08118647 -0.031726986 -0.03892262 0.02412056 -0.002362971
0.022567855 0.0313459 0.02780606 0.03525317 0.0446575 0.038900215 -0.022051442 -0.031218654
-0.016577758 0.036144465 0.021259116 -0.058017112 -0.08466663 -0.023545684 0.029742274 0.018195556
-0.052040976 0.010443545 0.027863657 0.037753776 -0.0077005588 -0.046775628 -0.021471271 -0.0020492468
-0.013598042 0.044565234 -0.10119 0.08617813 0.06452192 -0.046362646 -0.016642556 0.02454222
-0.026477963 0.036051463 -0.08637501 -0.037361346 0.015244747 -0.06713741 0.040450778 0.011655011
0.002178866 0.08083118 -0.015555455 0.007982995 -0.015960446 0.0056601204 -0.082618676 -0.035308808
-0.04134786 -0.061257947 -0.10004772 -0.1431534 -0.056863684 -0.041103154 0.010823016 0.022242913
0.03703406 0.002588069 0.09281414 0.018657165 -0.005245916 -0.030149063 0.028879277 -0.008866171
0.027613413 0.0063939923 -0.030001787 0.061977375 -0.03170743 -0.045636114 -0.2095618 -0.02214037
00000000: a026 c8bd 7cb6 8d3d d34f 43bd e519 843d
00000010: a1f8 38bc c7e1 4ebd d6fa f23c 2e60 e1bd
00000020: bff8 6b3c 7e63 163d 0dc3 c0bc d0fc 763b
00000030: 8e01 b43b 0a9d bdbd 5442 01bd e86f 60be
00000040: f00b 43bd c101 793d 0279 2a3b d883 083e
00000050: 560a d83d ca1a d63c b81a 36bd 4345 6d3c
00000060: 34b9 38bd b56f 953d f991 1b3e d6c9 80bd
00000070: f454 a1bc 40d2 5abd 07a5 08bd d49d 13bc
00000080: cf19 c8bc de42 aebd 2848 aabc caa3 6d3d
00000090: 8ff5 6ebd 40f4 073d 3228 a5bd c970 86bd
000000a0: 060f acbc cbb0 ec3c 4884 a53d ff8f 48bd
000000b0: b2a3 d0bb 0787 ad3d d64e 823b a60f 9dbc
000000c0: 409a 07bd 6e58 273c f81f ffba 1504 76bd
000000d0: 09a1 38bd feb9 6fbd 2583 333d 80ee f93c
000000e0: eede a03c 3d5c b1ba 09f7 4bbc ccf5 febb
000000f0: 43f1 843d d2d1 baba a8db a4bd 20c6 ca3a
00000100: 49e1 65bd 519e b83c fea4 eebd fa63 f13c
00000110: d3d8 cdbd 5af3 663b 2ce5 1c3d 5749 97bd
00000120: 6ac9 803b 62dc 38bd a923 c83d eb0b afbd
00000130: 7bd8 97bd b472 693c 060e 7d3d 0be4 d03b
00000140: 6401 363c 6afd eebd a247 5abd 5b89 5e3d
00000150: cf01 f93c c0bc 133d 813f 47bd 1826 2e3d
00000160: f673 8abd 203d 9fbc 05c0 b33d 3fc4 f93d
00000170: b430 7b3c 1253 af3c 4fc4 8fbd b3e0 133d
00000180: b2ed 65bd ff33 65bc da71 783d 815c 413d
00000190: 303e 94bd 4cb2 9c3c b7c9 11bc 319f 82ba
000001a0: b8f1 4bbd 6601 803d 81fa 283d 9c04 9c3c
000001b0: 3dd5 483c ec6c d4bd 631f 39be 32ea 73bd
000001c0: 9e10 583b aa07 243d 18bb 95bc 1d83 08bd
000001d0: 6db3 7fbd 83dd 933d 17a8 14bd a28f c33c
000001e0: 0d2f e7bc 4904 ed3c 23d8 79bd b618 b4bd
000001f0: bbce 8c3d 6c46 39be 118b 2f3d 7bd1 de3b
00000200: 387b c13b df45 4cbc cacf 433d 85f0 d13c
00000210: f997 66ba 9671 663d bcc1 9d3c 4a2d 7abd
00000220: 1a1d 5bbd 2e98 573e 0bb5 6b3d 4bfe 9cbd
00000230: e8aa 6ebd 4faf 5abd 64c1 55ba ec3c 3f3c
00000240: 1976 7ebc 60ff 0b3d fc35 a0bd 786d 5abd
00000250: d3c8 ff3a 80fc 95bc 7c8c ac3d ccfb 23be
00000260: 5a2b b33d d30c 753c 1e2f dbbd 3a87 49bd
00000270: 336b 1bbd 54a6 7d3d e3bd 5e3d 7209 6ebd
00000280: 7e1e 59bb 2338 ae3c e4ec 00be 2b36 a6bd
00000290: 18e0 eb3c cd74 9bbd 0582 be3d f840 12bc
000002a0: 61f8 9abc 147e b7bb f00e 6cbd f2ea 36bd
000002b0: 102f b03d 1468 933d 7fc5 973d d55a 843d
000002c0: bb86 a1bd 6f17 b53c 340c 8ebd 1845 a6bd
000002d0: 28f4 01bd 536d 1fbd 7b98 c53c 13dc 1abb
000002e0: 39e0 b83c 8f64 003d 89c9 e33c a165 103d
000002f0: c8ea 363d d555 1f3d 3aa5 b4bc 43be ffbc
00000300: 14ce 87bc 380c 143d 9927 ae3c 5aa3 6dbd
00000310: b365 adbd e1e2 c0bc 12a6 f33c d90e 953c
00000320: eb28 55bd 671b 2b3c 5342 e43c b4a3 1a3d
00000330: f854 fcbb cd97 3fbd 85e4 afbc a84c 06bb
00000340: 52ca 5ebc 098a 363d b43c cfbd 297e b03d
00000350: 1224 843d c2e6 3dbd f855 88bc c40c c93c
00000360: 50e8 d8bc b3aa 133d 62e5 b0bd 3608 19bd
00000370: 1ac5 793c 577f 89bd b7af 253d a9f4 3e3c
00000380: 4ecb 0e3b d18a a53d 4fdc 7ebc 1ccb 023c
00000390: 7bbf 82bc 8878 b93b fb33 a9bd f89f 10bd
000003a0: 605c 29bd 9de9 7abd d2e5 ccbd ce96 12be
000003b0: e5e9 68bd c85b 28bd 0553 313c c536 b63c
000003c0: 07b1 173d 989c 293b 5715 be3d e9d6 983c
000003d0: efe5 abbb 2bfb f6bc 3c94 ec3c 6b43 11bc
000003e0: 8635 e23c b284 d13b 4fc6 f5bc fddb 7d3d
000003f0: a6df 01bd efec 3abd 5e97 56be b95f b5bc

bias f4 [128]
-0.044007976 0.014359289 -0.117788926 -0.20019665 0.012648567 -0.045265175 -0.017035777 -0.006326233
0.035197377 0.013122384 -0.13294591 -0.044402886 -0.10244623 -0.094781265 -0.016876044 0.06989296
-0.11187414 -0.059071325 -0.12909631 0.034021534 -0.13963959 0.08229683 -0.041142367 -0.01767939
-0.01705916 -0.09417259 -0.06640885 -0.09394396 -0.11521029 -0.029056147 -0.20449568 0.069664896
0.107975125 -0.03956355 -0.12954277 0.077625684 -0.06748234 -0.06935446 -0.011790341 -0.08112768
0.042244844 -0.06877026 -0.12443582 0.053234763 -0.057959706 -0.024248457 0.021265078 -0.017712489
-0.123755775 0.033006605 -0.06525294 -0.05483416 -0.08720241 -0.07244013 -0.054278515 -0.11015241
-0.09767286 -0.07687325 -0.049937923 -0.08966333 -0.08032454 0.008658956 -0.087648086 -0.05262219
-0.075705335 -0.060156707 0.047791384 -0.025297178 -0.12613893 -0.06383599 -0.058685876 -0.07472325
-0.02394385 -0.08058861 -0.0752755 -0.0029435179 -0.12831777 -0.099044606 -0.05936176 -0.0659112
0.07687583 -0.030732682 0.008986894 -0.16683552 -0.1033528 -0.05269666 -0.105412394 -0.19595404
0.021176478 -0.10866228 0.04018388 0.10626189 -0.028592775 0.0010862704 -0.13976665 -0.030868717
-0.1500051 -0.04612189 -0.06913461 -0.12290326 0.04793615 0.048948828 -0.121504195 -0.037250325
-0.073115304 0.058464386 -0.06193684 -0.026813956 -0.047859136 -0.011182299 0.0055051115 -0.029565796
-0.013008551 -0.07272869 -0.0014980877 0.020669766 0.04938981 -0.020413883 -0.033876386 -0.012732367
-0.15186796 0.03732308 -0.08780882 -0.006469647 -0.0076147895 -0.007104889 -0.0078511285 -0.06310931
00000000: b541 34bd 3943 6b3c 523b f1bd 5a00 4dbe
00000010: ef3b 4f3c fa67 39bd 9d8e 8bbc 4a4c cfbb
00000020: 202b 103d 45ff 563c f922 08be cddf 35bd
00000030: 54cf d1bd ae1c c2bd a13f 8abc 0a24 8f3d
00000040: 451e e5bd c6f4 71bd d331 04be 2a5a 0b3d
00000050: aefd 0ebe 3e8b a83d e684 28bd 5ed4 90bc
00000060: a7bf 8bbc 8fdd c0bd 5d01 88bd b165 c0bd
00000070: 5ff3 ebbd 2807 eebc 5167 51be 78ac 8e3d
00000080: 1022 dd3d 640d 22bd dca6 04be 37fa 9e3d
00000090: 2e34 8abd b609 8ebd 462c 41bc 4526 a6bd
000000a0: ee08 2d3d 6cd7 8cbd 35d8 febd b20c 5a3d
000000b0: 2867 6dbd b3a4 c6bc 1a34 ae3c c819 91bc
000000c0: ab73 fdbd ef31 073d 55a3 85bd c999 60bd
000000d0: 2d97 b2bd 7e5b 94bd 2653 5ebd 9697 e1bd
000000e0: b508 c8bd b96f 9dbd b58b 4cbd 68a1 b7bd
000000f0: 3181 a4bd 4bde 0d3c d780 b3bd 5e8a 57bd
00000100: 660b 9bbd e166 76bd e6c0 433d 073c cfbc
00000110: 902a 01be 72bc 82bd 9a60 70bd 8108 99bd
00000120: e525 c4bc a40b a5bd 0b2a 9abd 09e8 40bb
00000130: bc65 03be e6d7 cabd 5125 73bd 74fc 86bd
00000140: 1371 9d3d 1bc3 fbbc c43d 133c eed6 2abe
00000150: a2aa d3bd 74d8 57bd 74e2 d7bd 2da8 48be
00000160: 4b7a ad3c 548a debd da97 243d d59f d93d
00000170: 653b eabc 3061 8e3a fd1e 0fbe 64e0 fcbc
00000180: f09a 19be 4fea 3cbd 7296 8dbd b4b4 fbbd
00000190: b258 443d 917e 483d 31d7 f8bd cc93 18bd
000001a0: 7abd 95bd 5a78 6f3d 7cb1 7dbd f1a8 dbbc
000001b0: f107 44bd f635 37bc 3964 b43b f833 f2bc
000001c0: d121 55bc c8f2 94bd 7b5b c4ba a453 a93c
000001d0: f84c 4a3d 043b a7bc f7c1 0abd 6b9b 50bc
000001e0: 4683 1bbe 16e0 183d 1cd5 b3bd 55ff d3bb
000001f0: 7c85 f9bb 21d0 e8bb 05a2 00bc 743f 81bd

weight f4 [12, 128]
-0.046530787 0.08218014 -0.13209268 -0.12037023 -0.0034790775 0.013189017 -0.02212684 0.017897068
-0.04686158 0.02710424 0.008842609 0.05393262 0.0012778467 0.042133432 0.041695267 0.0062032207
-0.014213019 -0.11626167 -0.02646312 -0.056409314 -0.034612954 0.005575193 0.02940548 0.011956377
0.024766974 0.05857294 0.004382941 -0.0011354611 0.052581932 0.05395142 -0.048631996 0.0026960312
0.022695182 -0.057169158 0.034546148 0.004546243 0.04316611 0.06996335 -0.013295235 0.05138204
-0.021478627 -0.0836227 -0.009227788 -0.015807917 0.0531607 -0.013469931 0.043715578 -0.08558111
-0.00516931 0.14470783 0.0031662802 0.020444395 -0.045052297 0.023846364 -0.03779292 -0.044901196
-0.032401457 0.041547846 0.048287563 0.004996146 -0.022197489 0.08391616 -0.065533705 -0.035983793
0.035898775 0.057153575 0.008941143 0.044593707 0.006840188 0.13701963 -0.011317577 -0.0656831
0.0027418851 -0.027944686 0.024327813 -0.03294335 0.0057781627 0.095448755 0.041207053 0.04171631
-0.0952768 0.052432362 0.045187853 -0.13248219 0.034535628 0.042093795 -0.0072614453 0.0052452856
-0.04399784 -0.0695678 0.046726815 -0.011851667 -0.038177654 0.00016671493 0.008716188 0.05189567
0.006622396 -0.03660475 0.018920563 -0.041887067 0.024212087 -0.004941158 -0.07123541 -0.0026819892
0.057412624 -0.012634439 0.011356552 -0.00062937743 -0.045437116 0.04682198 0.09655963 0.009242951
-0.06858802 0.03953448 -0.024404477 0.013983064 0.01518251 0.03353958 0.11236666 0.051553693
-0.021424096 -0.016628515 -0.028474763 0.045429863 -0.02956375 -0.00080140895 0.010989084 -0.040675245
-0.09439691 -0.024092251 -0.09168531 -0.059113003 -0.06984219 0.055965405 -0.020905953 -0.003235421
-0.0089329565 -0.13077243 -0.0035359822 0.05298474 -0.034200598 0.016127815 -0.0078086103 -0.035508003
0.15732028 -0.00035680042 0.08773592 -0.092462644 -0.0022370287 -0.027758267 0.06856821 0.033765376
0.0040037655 -0.014533649 0.10211318 -0.05073511 -0.023477642 -0.031400695 -0.0670536 -0.078262396
-0.018071601 0.031675983 -0.006881994 -0.029778233 0.008704418 0.010713074 -0.028916331 0.046293646
0.027006192 0.18990405 -0.0042750146 -0.041382704 -0.026341245 0.031452216 0.0065123877 -0.025800915
0.011079025 -0.025957657 -0.01927167 0.042596363 0.005259267 -0.02787413 -0.014348023 -0.05898801
0.00034012896 -0.021866377 0.0045411563 -0.053917922 0.025788711 -0.008310398 -0.042088393 0.04993004
0.007101405 0.09042147 -0.05399188 0.026330274 0.104572795 0.062318146 -0.04416716 0.023319883
-0.0055998517 0.023893367 -0.008262262 0.048335604 0.00052273273 0.03882968 0.029829647 0.027947502
-0.035699755 -0.035289157 0.004248647 0.0146042 -0.019857315 -0.008772791 -0.03935841 0.020896079
-0.08119038 0.007026804 -0.049211964 -0.068997175 -0.02852701 -0.008433507 0.072243474 -0.046826363
0.04969662 0.0036872511 0.0024230967 -0.056335986 0.0071870936 -0.041299116 -0.032211144 -0.057838306
0.06610172 -0.06093334 0.06635212 -0.02734658 0.01606487 0.03310117 -0.02011088 0.03631603
0.009354145 -0.027061623 0.06644662 -0.049210943 -0.044261258 0.049498137 0.052423548 -0.011627018
-0.02066996 0.07980549 -0.03550409 0.0103814155 0.033780303 -0.0035360658 0.061889425 0.00027912864
00000000: 1197 3ebd 104e a83d 4e43 07be ab84 f6bd
00000010: 3c01 64bb bf16 583c 5943 b5bc df9c 923c
00000020: eef1 3fbd b609 de3c 97e0 103c 73e8 5c3d
00000030: 6c7d a73a 1b94 2c3d a8c8 2a3d 6344 cb3b
00000040: b9dd 68bc 991a eebd 2fc9 d8bc 740d 67bd
00000050: 50c6 0dbd 1cb0 b63b c3e3 f03c aee4 433c
00000060: 1ce4 ca3c 2eea 6f3d c69e 8f3b c1d3 94ba
00000070: 2760 573d 2afc 5c3d 5832 47bd e6af 303b
00000080: 3feb b93c 352a 6abd 4380 0d3d a7f8 943b
00000090: f2ce 303d f248 8f3d 42d4 59bc f975 523d
000000a0: f2f3 afbc 6142 abbd 2630 17bc 9b7f 81bc
000000b0: 09bf 593d fcb0 5cbc 1b0f 333d 2645 afbd
000000c0: 5163 a9bb 4a2e 143e 5e81 4f3b 017b a73c
000000d0: c288 38bd 7359 c33c c0cc 1abd 51ea 37bd
000000e0: 64b7 04bd 132e 2a3d 2ec9 453d b6b6 a33b
000000f0: 82d7 b5bc 3cdc ab3d 8936 86bd be63 13bd
00000100: 980a 133d de19 6a3d df7d 123c e4a7 363d
00000110: a823 e03b e04e 0c3e 5c6d 39bc dc84 86bd
00000120: 33b1 333b 41ec e4bc 1f4b c73c 9bef 06bd
00000130: be56 bd3b a37a c33d bac8 283d b9de 2a3d
00000140: 7c20 c3bd 51c3 563d e616 393d 69a9 07be
00000150: 3b75 0d3d 8b6a 2c3d 6bf1 edbb a5e0 ab3b
00000160: 1437 34bd 9079 8ebd 9e64 3f3d 7f2d 42bc
00000170: 2c60 1cbd 33d0 2e39 58ce 0e3c 8e90 543d
00000180: af00 d93b ddee 15bd 4cff 9a3c c691 2bbd
00000190: 6d58 c63c 70e9 a1bb dfe3 91bd 50c4 2fbb
000001a0: 8029 6b3d ae00 4fbc d510 3a3c cefc 24ba
000001b0: 451c 3abd 68c8 3f3d 0ec1 c53d bf6f 173c
000001c0: e077 8cbd e8ee 213d e6eb c7bc 3919 653c
000001d0: 10c0 783c cc60 093d 7e20 e63d f729 533d
000001e0: 9681 afbc 8638 88bc e843 e9bc aa14 3a3d
000001f0: ad2f f2bc a515 52ba 8f0b 343c 169b 26bd
00000200: 2b53 c1bd 1d5d c5bc 82c5 bbbd 7a20 72bd
00000210: 6c09 8fbd fb3b 653d f642 abbc 5b09 54bb
00000220: 895b 12bc 35e9 05be f0bb 67bb 8706 593d
00000230: ed15 0cbd 7b1e 843c 5fdf ffbb d770 11bd
00000240: 9118 213e f110 bbb9 e4ae b33d 0e5d bdbd
00000250: 1d9b 12bb 4e65 e3bc 7d6d 8c3d 904d 0a3d
00000260: 0532 833b 8b1e 6ebc b720 d13d 9ecf 4fbd
00000270: 2f54 c0bc 049e 00bd 6653 89bd 0948 a0bd
00000280: e50a 94bc adbe 013d 5a82 e1bb 7bf1 f3bc
00000290: fa9c 0e3c e485 2f3c f1e1 ecbc 689e 3d3d
000002a0: 173c dd3c 3576 423e 6c15 8cbb e980 29bd
000002b0: 98c9 d7bc 0ad4 003d de65 d53b 715c d3bc
000002c0: cd84 353c 27a5 d4bc 9fdf 9dbc 8679 2e3d
000002d0: ee55 ac3b 4a58 e4bc f813 6bbc 699d 71bd
000002e0: 5653 b239 1e21 b3bc fbcd 943b 0ad9 5cbd
000002f0: d942 d33c 5628 08bc e164 2cbd 7183 4c3d
00000300: e7b2 e83b e42e b93d 9726 5dbd 96b2 d73c
00000310: 432a d63d 5041 7f3d a0e8 34bd 5709 bf3c
00000320: f67e b7bb 06bc c33c 705e 07bc 8efb 453d
00000330: 0008 093a df0b 1f3d 4e5d f43c 29f2 e43c
00000340: e839 12bd 5d8b 10bd 3c38 8b3b 7446 6f3c
00000350: cfab a2bc c1bb 0fbc 4936 21bd 412e ab3c
00000360: 2447 a6bd 1b41 e63b 7c92 49bd 644e 8dbd
00000370: 7ab1 e9bc b12c 0abc 63f4 933d 00cd 3fbd
00000380: af8e 4b3d cfa5 713b d1cc 1e3b 90c0 66bd
00000390: b681 eb3b 4329 29bd d5ef 03bd dce7 6cbd
000003a0: 5760 873d 3d95 79bd 9fe3 873d ef05 e0bc
000003b0: 799a 833c 1895 073d 92bf a4bc 1ec0 143d
000003c0: 2142 193c 56b0 ddbc 2a15 883d 6a91 49bd
000003d0: 4b4b 35bd 8fbe 4a3d 13ba 563d 407f 3ebc
000003e0: 0c54 a9bc 1071 a33d bd6c 11bd d016 2a3c
000003f0: 375d 0a3d 57bd 67bb c47f 7d3d 0358 9239

bias f4 [12]
0.13644773 -0.026006855 -0.022891788 -0.123662196 -0.095695354 -0.074178554 0.06973889 -0.04657761
-0.10718812 -0.22158644 0.007046232 -0.16176294
00000000: f4b8 0b3e 540c d5bc 8f87 bbbc 9b42 fdbd
00000010: edfb c3bd edea 97bd 43d3 8e3d 2ac8 3ebd
00000020: 7285 dbbd 8ee7 62be 14e4 e63b 2fa5 25be
